program(1.0)
[buildInfo = dict<tensor<string, []>, tensor<string, []>>({{"coremlc-component-MIL", "3520.4.1"}, {"coremlc-version", "3520.5.1"}, {"coremltools-component-tensorflow", "2.17.1"}, {"coremltools-version", "9.0"}})]
{
    func main<ios15>(tensor<fp32, [1, 3, 224, 224]> input_layer_1) {
            tensor<string, []> input_layer_1_to_fp16_dtype_0 = const()[name = tensor<string, []>("input_layer_1_to_fp16_dtype_0"), val = tensor<string, []>("fp16")];
            tensor<fp16, []> functional_1_MobileNetV3Small_1_rescaling_1_Cast_x_to_fp16 = const()[name = tensor<string, []>("functional_1_MobileNetV3Small_1_rescaling_1_Cast_x_to_fp16"), val = tensor<fp16, []>(0x1.01p-7)];
            tensor<fp16, [1, 3, 224, 224]> input_layer_1_to_fp16 = cast(dtype = input_layer_1_to_fp16_dtype_0, x = input_layer_1)[name = tensor<string, []>("cast_5")];
            tensor<fp16, [1, 3, 224, 224]> functional_1_MobileNetV3Small_1_rescaling_1_mul_cast_fp16 = mul(x = input_layer_1_to_fp16, y = functional_1_MobileNetV3Small_1_rescaling_1_Cast_x_to_fp16)[name = tensor<string, []>("functional_1_MobileNetV3Small_1_rescaling_1_mul_cast_fp16")];
            tensor<fp16, []> functional_1_MobileNetV3Small_1_rescaling_1_Cast_1_x_to_fp16 = const()[name = tensor<string, []>("functional_1_MobileNetV3Small_1_rescaling_1_Cast_1_x_to_fp16"), val = tensor<fp16, []>(-0x1p+0)];
            tensor<fp16, [1, 3, 224, 224]> functional_1_MobileNetV3Small_1_rescaling_1_add_cast_fp16 = add(x = functional_1_MobileNetV3Small_1_rescaling_1_mul_cast_fp16, y = functional_1_MobileNetV3Small_1_rescaling_1_Cast_1_x_to_fp16)[name = tensor<string, []>("functional_1_MobileNetV3Small_1_rescaling_1_add_cast_fp16")];
            tensor<string, []> functional_1_MobileNetV3Small_1_conv_bn_1_batchnorm_mul_1x_pad_type_0 = const()[name = tensor<string, []>("functional_1_MobileNetV3Small_1_conv_bn_1_batchnorm_mul_1x_pad_type_0"), val = tensor<string, []>("same")];
            tensor<int32, [2]> functional_1_MobileNetV3Small_1_conv_bn_1_batchnorm_mul_1x_strides_0 = const()[name = tensor<string, []>("functional_1_MobileNetV3Small_1_conv_bn_1_batchnorm_mul_1x_strides_0"), val = tensor<int32, [2]>([2, 2])];
            tensor<int32, [2]> functional_1_MobileNetV3Small_1_conv_bn_1_batchnorm_mul_1x_dilations_0 = const()[name = tensor<string, []>("functional_1_MobileNetV3Small_1_conv_bn_1_batchnorm_mul_1x_dilations_0"), val = tensor<int32, [2]>([1, 1])];
            tensor<int32, []> functional_1_MobileNetV3Small_1_conv_bn_1_batchnorm_mul_1x_groups_0 = const()[name = tensor<string, []>("functional_1_MobileNetV3Small_1_conv_bn_1_batchnorm_mul_1x_groups_0"), val = tensor<int32, []>(1)];
            tensor<int32, [4]> functional_1_MobileNetV3Small_1_conv_bn_1_batchnorm_mul_1x_pad_0 = const()[name = tensor<string, []>("functional_1_MobileNetV3Small_1_conv_bn_1_batchnorm_mul_1x_pad_0"), val = tensor<int32, [4]>([0, 0, 0, 0])];
            tensor<fp16, [16, 3, 3, 3]> transpose_0_to_fp16 = const()[name = tensor<string, []>("transpose_0_to_fp16"), val = tensor<fp16, [16, 3, 3, 3]>(BLOBFILE(path = tensor<string, []>("@model_path/weights/weight.bin"), offset = tensor<uint64, []>(64)))];
            tensor<fp16, [16]> const_75_to_fp16 = const()[name = tensor<string, []>("const_75_to_fp16"), val = tensor<fp16, [16]>(BLOBFILE(path = tensor<string, []>("@model_path/weights/weight.bin"), offset = tensor<uint64, []>(1024)))];
            tensor<fp16, [1, 16, 112, 112]> functional_1_MobileNetV3Small_1_conv_bn_1_batchnorm_add_1_cast_fp16 = conv(bias = const_75_to_fp16, dilations = functional_1_MobileNetV3Small_1_conv_bn_1_batchnorm_mul_1x_dilations_0, groups = functional_1_MobileNetV3Small_1_conv_bn_1_batchnorm_mul_1x_groups_0, pad = functional_1_MobileNetV3Small_1_conv_bn_1_batchnorm_mul_1x_pad_0, pad_type = functional_1_MobileNetV3Small_1_conv_bn_1_batchnorm_mul_1x_pad_type_0, strides = functional_1_MobileNetV3Small_1_conv_bn_1_batchnorm_mul_1x_strides_0, weight = transpose_0_to_fp16, x = functional_1_MobileNetV3Small_1_rescaling_1_add_cast_fp16)[name = tensor<string, []>("functional_1_MobileNetV3Small_1_conv_bn_1_batchnorm_add_1_cast_fp16")];
            tensor<fp16, []> functional_1_MobileNetV3Small_1_activation_1_Const_to_fp16 = const()[name = tensor<string, []>("functional_1_MobileNetV3Small_1_activation_1_Const_to_fp16"), val = tensor<fp16, []>(0x1.8p+1)];
            tensor<fp16, [1, 16, 112, 112]> functional_1_MobileNetV3Small_1_activation_1_add_cast_fp16 = add(x = functional_1_MobileNetV3Small_1_conv_bn_1_batchnorm_add_1_cast_fp16, y = functional_1_MobileNetV3Small_1_activation_1_Const_to_fp16)[name = tensor<string, []>("functional_1_MobileNetV3Small_1_activation_1_add_cast_fp16")];
            tensor<fp16, [1, 16, 112, 112]> functional_1_MobileNetV3Small_1_activation_1_Relu6_cast_fp16 = relu6(x = functional_1_MobileNetV3Small_1_activation_1_add_cast_fp16)[name = tensor<string, []>("functional_1_MobileNetV3Small_1_activation_1_Relu6_cast_fp16")];
            tensor<fp16, []> ConstantFolding_functional_1_MobileNetV3Small_1_activation_1_truediv_recip_to_fp16 = const()[name = tensor<string, []>("ConstantFolding_functional_1_MobileNetV3Small_1_activation_1_truediv_recip_to_fp16"), val = tensor<fp16, []>(0x1.554p-3)];
            tensor<fp16, [1, 16, 112, 112]> functional_1_MobileNetV3Small_1_activation_1_truediv_cast_fp16 = mul(x = functional_1_MobileNetV3Small_1_activation_1_Relu6_cast_fp16, y = ConstantFolding_functional_1_MobileNetV3Small_1_activation_1_truediv_recip_to_fp16)[name = tensor<string, []>("functional_1_MobileNetV3Small_1_activation_1_truediv_cast_fp16")];
            tensor<fp16, [1, 16, 112, 112]> functional_1_MobileNetV3Small_1_activation_1_mul_cast_fp16 = mul(x = functional_1_MobileNetV3Small_1_conv_bn_1_batchnorm_add_1_cast_fp16, y = functional_1_MobileNetV3Small_1_activation_1_truediv_cast_fp16)[name = tensor<string, []>("functional_1_MobileNetV3Small_1_activation_1_mul_cast_fp16")];
            tensor<string, []> pad_0_mode_0 = const()[name = tensor<string, []>("pad_0_mode_0"), val = tensor<string, []>("constant")];
            tensor<int32, [8]> pad_4_pad_0 = const()[name = tensor<string, []>("pad_4_pad_0"), val = tensor<int32, [8]>([0, 0, 0, 0, 0, 1, 0, 1])];
            tensor<fp16, []> const_0_to_fp16 = const()[name = tensor<string, []>("const_0_to_fp16"), val = tensor<fp16, []>(0x0p+0)];
            tensor<fp16, [1, 16, 113, 113]> pad_4_cast_fp16 = pad(constant_val = const_0_to_fp16, mode = pad_0_mode_0, pad = pad_4_pad_0, x = functional_1_MobileNetV3Small_1_activation_1_mul_cast_fp16)[name = tensor<string, []>("pad_4_cast_fp16")];
            tensor<string, []> functional_1_MobileNetV3Small_1_expanded_conv_depthwise_1_depthwisex_pad_type_0 = const()[name = tensor<string, []>("functional_1_MobileNetV3Small_1_expanded_conv_depthwise_1_depthwisex_pad_type_0"), val = tensor<string, []>("valid")];
            tensor<int32, [2]> functional_1_MobileNetV3Small_1_expanded_conv_depthwise_1_depthwisex_strides_0 = const()[name = tensor<string, []>("functional_1_MobileNetV3Small_1_expanded_conv_depthwise_1_depthwisex_strides_0"), val = tensor<int32, [2]>([2, 2])];
            tensor<int32, [2]> functional_1_MobileNetV3Small_1_expanded_conv_depthwise_1_depthwisex_dilations_0 = const()[name = tensor<string, []>("functional_1_MobileNetV3Small_1_expanded_conv_depthwise_1_depthwisex_dilations_0"), val = tensor<int32, [2]>([1, 1])];
            tensor<int32, []> functional_1_MobileNetV3Small_1_expanded_conv_depthwise_1_depthwisex_groups_0 = const()[name = tensor<string, []>("functional_1_MobileNetV3Small_1_expanded_conv_depthwise_1_depthwisex_groups_0"), val = tensor<int32, []>(16)];
            tensor<int32, [4]> functional_1_MobileNetV3Small_1_expanded_conv_depthwise_1_depthwisex_pad_0 = const()[name = tensor<string, []>("functional_1_MobileNetV3Small_1_expanded_conv_depthwise_1_depthwisex_pad_0"), val = tensor<int32, [4]>([0, 0, 0, 0])];
            tensor<fp16, [16, 1, 3, 3]> functional_1_MobileNetV3Small_1_expanded_conv_depthwise_bn_1_batchnorm_mul_1_weight_0_to_fp16 = const()[name = tensor<string, []>("functional_1_MobileNetV3Small_1_expanded_conv_depthwise_bn_1_batchnorm_mul_1_weight_0_to_fp16"), val = tensor<fp16, [16, 1, 3, 3]>(BLOBFILE(path = tensor<string, []>("@model_path/weights/weight.bin"), offset = tensor<uint64, []>(1152)))];
            tensor<fp16, [16]> const_76_to_fp16 = const()[name = tensor<string, []>("const_76_to_fp16"), val = tensor<fp16, [16]>(BLOBFILE(path = tensor<string, []>("@model_path/weights/weight.bin"), offset = tensor<uint64, []>(1536)))];
            tensor<fp16, [1, 16, 56, 56]> functional_1_MobileNetV3Small_1_expanded_conv_depthwise_bn_1_batchnorm_add_1_cast_fp16 = conv(bias = const_76_to_fp16, dilations = functional_1_MobileNetV3Small_1_expanded_conv_depthwise_1_depthwisex_dilations_0, groups = functional_1_MobileNetV3Small_1_expanded_conv_depthwise_1_depthwisex_groups_0, pad = functional_1_MobileNetV3Small_1_expanded_conv_depthwise_1_depthwisex_pad_0, pad_type = functional_1_MobileNetV3Small_1_expanded_conv_depthwise_1_depthwisex_pad_type_0, strides = functional_1_MobileNetV3Small_1_expanded_conv_depthwise_1_depthwisex_strides_0, weight = functional_1_MobileNetV3Small_1_expanded_conv_depthwise_bn_1_batchnorm_mul_1_weight_0_to_fp16, x = pad_4_cast_fp16)[name = tensor<string, []>("functional_1_MobileNetV3Small_1_expanded_conv_depthwise_bn_1_batchnorm_add_1_cast_fp16")];
            tensor<fp16, [1, 16, 56, 56]> functional_1_MobileNetV3Small_1_re_lu_1_Relu_cast_fp16 = relu(x = functional_1_MobileNetV3Small_1_expanded_conv_depthwise_bn_1_batchnorm_add_1_cast_fp16)[name = tensor<string, []>("functional_1_MobileNetV3Small_1_re_lu_1_Relu_cast_fp16")];
            tensor<bool, []> functional_1_MobileNetV3Small_1_expanded_conv_squeeze_excite_avg_pool_1_Mean_keep_dims_0 = const()[name = tensor<string, []>("functional_1_MobileNetV3Small_1_expanded_conv_squeeze_excite_avg_pool_1_Mean_keep_dims_0"), val = tensor<bool, []>(true)];
            tensor<int32, [2]> const_7 = const()[name = tensor<string, []>("const_7"), val = tensor<int32, [2]>([2, 3])];
            tensor<fp16, [1, 16, 1, 1]> functional_1_MobileNetV3Small_1_expanded_conv_squeeze_excite_avg_pool_1_Mean_cast_fp16 = reduce_mean(axes = const_7, keep_dims = functional_1_MobileNetV3Small_1_expanded_conv_squeeze_excite_avg_pool_1_Mean_keep_dims_0, x = functional_1_MobileNetV3Small_1_re_lu_1_Relu_cast_fp16)[name = tensor<string, []>("functional_1_MobileNetV3Small_1_expanded_conv_squeeze_excite_avg_pool_1_Mean_cast_fp16")];
            tensor<string, []> functional_1_MobileNetV3Small_1_expanded_conv_squeeze_excite_conv_1_convolutionx_pad_type_0 = const()[name = tensor<string, []>("functional_1_MobileNetV3Small_1_expanded_conv_squeeze_excite_conv_1_convolutionx_pad_type_0"), val = tensor<string, []>("same")];
            tensor<int32, [2]> functional_1_MobileNetV3Small_1_expanded_conv_squeeze_excite_conv_1_convolutionx_strides_0 = const()[name = tensor<string, []>("functional_1_MobileNetV3Small_1_expanded_conv_squeeze_excite_conv_1_convolutionx_strides_0"), val = tensor<int32, [2]>([1, 1])];
            tensor<int32, [2]> functional_1_MobileNetV3Small_1_expanded_conv_squeeze_excite_conv_1_convolutionx_dilations_0 = const()[name = tensor<string, []>("functional_1_MobileNetV3Small_1_expanded_conv_squeeze_excite_conv_1_convolutionx_dilations_0"), val = tensor<int32, [2]>([1, 1])];
            tensor<int32, []> functional_1_MobileNetV3Small_1_expanded_conv_squeeze_excite_conv_1_convolutionx_groups_0 = const()[name = tensor<string, []>("functional_1_MobileNetV3Small_1_expanded_conv_squeeze_excite_conv_1_convolutionx_groups_0"), val = tensor<int32, []>(1)];
            tensor<int32, [4]> functional_1_MobileNetV3Small_1_expanded_conv_squeeze_excite_conv_1_convolutionx_pad_0 = const()[name = tensor<string, []>("functional_1_MobileNetV3Small_1_expanded_conv_squeeze_excite_conv_1_convolutionx_pad_0"), val = tensor<int32, [4]>([0, 0, 0, 0])];
            tensor<fp16, [8, 16, 1, 1]> transpose_4_to_fp16 = const()[name = tensor<string, []>("transpose_4_to_fp16"), val = tensor<fp16, [8, 16, 1, 1]>(BLOBFILE(path = tensor<string, []>("@model_path/weights/weight.bin"), offset = tensor<uint64, []>(1664)))];
            tensor<fp16, [8]> const_77_to_fp16 = const()[name = tensor<string, []>("const_77_to_fp16"), val = tensor<fp16, [8]>([0x1.53p-1, -0x1.618p+0, 0x1.e78p-3, 0x1.7bp+1, -0x1.7e8p+0, -0x1.1f4p+1, 0x1.59cp+1, 0x1.91cp+0])];
            tensor<fp16, [1, 8, 1, 1]> functional_1_MobileNetV3Small_1_expanded_conv_squeeze_excite_conv_1_BiasAdd_cast_fp16 = conv(bias = const_77_to_fp16, dilations = functional_1_MobileNetV3Small_1_expanded_conv_squeeze_excite_conv_1_convolutionx_dilations_0, groups = functional_1_MobileNetV3Small_1_expanded_conv_squeeze_excite_conv_1_convolutionx_groups_0, pad = functional_1_MobileNetV3Small_1_expanded_conv_squeeze_excite_conv_1_convolutionx_pad_0, pad_type = functional_1_MobileNetV3Small_1_expanded_conv_squeeze_excite_conv_1_convolutionx_pad_type_0, strides = functional_1_MobileNetV3Small_1_expanded_conv_squeeze_excite_conv_1_convolutionx_strides_0, weight = transpose_4_to_fp16, x = functional_1_MobileNetV3Small_1_expanded_conv_squeeze_excite_avg_pool_1_Mean_cast_fp16)[name = tensor<string, []>("functional_1_MobileNetV3Small_1_expanded_conv_squeeze_excite_conv_1_BiasAdd_cast_fp16")];
            tensor<fp16, [1, 8, 1, 1]> functional_1_MobileNetV3Small_1_expanded_conv_squeeze_excite_relu_1_Relu_cast_fp16 = relu(x = functional_1_MobileNetV3Small_1_expanded_conv_squeeze_excite_conv_1_BiasAdd_cast_fp16)[name = tensor<string, []>("functional_1_MobileNetV3Small_1_expanded_conv_squeeze_excite_relu_1_Relu_cast_fp16")];
            tensor<string, []> functional_1_MobileNetV3Small_1_expanded_conv_squeeze_excite_conv_1_2_convolutionx_pad_type_0 = const()[name = tensor<string, []>("functional_1_MobileNetV3Small_1_expanded_conv_squeeze_excite_conv_1_2_convolutionx_pad_type_0"), val = tensor<string, []>("same")];
            tensor<int32, [2]> functional_1_MobileNetV3Small_1_expanded_conv_squeeze_excite_conv_1_2_convolutionx_strides_0 = const()[name = tensor<string, []>("functional_1_MobileNetV3Small_1_expanded_conv_squeeze_excite_conv_1_2_convolutionx_strides_0"), val = tensor<int32, [2]>([1, 1])];
            tensor<int32, [2]> functional_1_MobileNetV3Small_1_expanded_conv_squeeze_excite_conv_1_2_convolutionx_dilations_0 = const()[name = tensor<string, []>("functional_1_MobileNetV3Small_1_expanded_conv_squeeze_excite_conv_1_2_convolutionx_dilations_0"), val = tensor<int32, [2]>([1, 1])];
            tensor<int32, []> functional_1_MobileNetV3Small_1_expanded_conv_squeeze_excite_conv_1_2_convolutionx_groups_0 = const()[name = tensor<string, []>("functional_1_MobileNetV3Small_1_expanded_conv_squeeze_excite_conv_1_2_convolutionx_groups_0"), val = tensor<int32, []>(1)];
            tensor<int32, [4]> functional_1_MobileNetV3Small_1_expanded_conv_squeeze_excite_conv_1_2_convolutionx_pad_0 = const()[name = tensor<string, []>("functional_1_MobileNetV3Small_1_expanded_conv_squeeze_excite_conv_1_2_convolutionx_pad_0"), val = tensor<int32, [4]>([0, 0, 0, 0])];
            tensor<fp16, [16, 8, 1, 1]> transpose_6_to_fp16 = const()[name = tensor<string, []>("transpose_6_to_fp16"), val = tensor<fp16, [16, 8, 1, 1]>(BLOBFILE(path = tensor<string, []>("@model_path/weights/weight.bin"), offset = tensor<uint64, []>(1984)))];
            tensor<fp16, [16]> const_126_to_fp16 = const()[name = tensor<string, []>("const_126_to_fp16"), val = tensor<fp16, [16]>(BLOBFILE(path = tensor<string, []>("@model_path/weights/weight.bin"), offset = tensor<uint64, []>(2304)))];
            tensor<fp16, [1, 16, 1, 1]> functional_1_MobileNetV3Small_1_Add_cast_fp16 = conv(bias = const_126_to_fp16, dilations = functional_1_MobileNetV3Small_1_expanded_conv_squeeze_excite_conv_1_2_convolutionx_dilations_0, groups = functional_1_MobileNetV3Small_1_expanded_conv_squeeze_excite_conv_1_2_convolutionx_groups_0, pad = functional_1_MobileNetV3Small_1_expanded_conv_squeeze_excite_conv_1_2_convolutionx_pad_0, pad_type = functional_1_MobileNetV3Small_1_expanded_conv_squeeze_excite_conv_1_2_convolutionx_pad_type_0, strides = functional_1_MobileNetV3Small_1_expanded_conv_squeeze_excite_conv_1_2_convolutionx_strides_0, weight = transpose_6_to_fp16, x = functional_1_MobileNetV3Small_1_expanded_conv_squeeze_excite_relu_1_Relu_cast_fp16)[name = tensor<string, []>("functional_1_MobileNetV3Small_1_Add_cast_fp16")];
            tensor<fp16, [1, 16, 1, 1]> functional_1_MobileNetV3Small_1_re_lu_1_2_Relu6_cast_fp16 = relu6(x = functional_1_MobileNetV3Small_1_Add_cast_fp16)[name = tensor<string, []>("functional_1_MobileNetV3Small_1_re_lu_1_2_Relu6_cast_fp16")];
            tensor<fp16, []> functional_1_MobileNetV3Small_1_Const_1_to_fp16 = const()[name = tensor<string, []>("functional_1_MobileNetV3Small_1_Const_1_to_fp16"), val = tensor<fp16, []>(0x1.554p-3)];
            tensor<fp16, [1, 16, 1, 1]> functional_1_MobileNetV3Small_1_Mul_cast_fp16 = mul(x = functional_1_MobileNetV3Small_1_re_lu_1_2_Relu6_cast_fp16, y = functional_1_MobileNetV3Small_1_Const_1_to_fp16)[name = tensor<string, []>("functional_1_MobileNetV3Small_1_Mul_cast_fp16")];
            tensor<fp16, [1, 16, 56, 56]> functional_1_MobileNetV3Small_1_expanded_conv_squeeze_excite_mul_1_Mul_cast_fp16 = mul(x = functional_1_MobileNetV3Small_1_re_lu_1_Relu_cast_fp16, y = functional_1_MobileNetV3Small_1_Mul_cast_fp16)[name = tensor<string, []>("functional_1_MobileNetV3Small_1_expanded_conv_squeeze_excite_mul_1_Mul_cast_fp16")];
            tensor<string, []> functional_1_MobileNetV3Small_1_expanded_conv_project_bn_1_batchnorm_mul_1x_pad_type_0 = const()[name = tensor<string, []>("functional_1_MobileNetV3Small_1_expanded_conv_project_bn_1_batchnorm_mul_1x_pad_type_0"), val = tensor<string, []>("same")];
            tensor<int32, [2]> functional_1_MobileNetV3Small_1_expanded_conv_project_bn_1_batchnorm_mul_1x_strides_0 = const()[name = tensor<string, []>("functional_1_MobileNetV3Small_1_expanded_conv_project_bn_1_batchnorm_mul_1x_strides_0"), val = tensor<int32, [2]>([1, 1])];
            tensor<int32, [2]> functional_1_MobileNetV3Small_1_expanded_conv_project_bn_1_batchnorm_mul_1x_dilations_0 = const()[name = tensor<string, []>("functional_1_MobileNetV3Small_1_expanded_conv_project_bn_1_batchnorm_mul_1x_dilations_0"), val = tensor<int32, [2]>([1, 1])];
            tensor<int32, []> functional_1_MobileNetV3Small_1_expanded_conv_project_bn_1_batchnorm_mul_1x_groups_0 = const()[name = tensor<string, []>("functional_1_MobileNetV3Small_1_expanded_conv_project_bn_1_batchnorm_mul_1x_groups_0"), val = tensor<int32, []>(1)];
            tensor<int32, [4]> functional_1_MobileNetV3Small_1_expanded_conv_project_bn_1_batchnorm_mul_1x_pad_0 = const()[name = tensor<string, []>("functional_1_MobileNetV3Small_1_expanded_conv_project_bn_1_batchnorm_mul_1x_pad_0"), val = tensor<int32, [4]>([0, 0, 0, 0])];
            tensor<fp16, [16, 16, 1, 1]> transpose_8_to_fp16 = const()[name = tensor<string, []>("transpose_8_to_fp16"), val = tensor<fp16, [16, 16, 1, 1]>(BLOBFILE(path = tensor<string, []>("@model_path/weights/weight.bin"), offset = tensor<uint64, []>(2432)))];
            tensor<fp16, [16]> const_79_to_fp16 = const()[name = tensor<string, []>("const_79_to_fp16"), val = tensor<fp16, [16]>(BLOBFILE(path = tensor<string, []>("@model_path/weights/weight.bin"), offset = tensor<uint64, []>(3008)))];
            tensor<fp16, [1, 16, 56, 56]> functional_1_MobileNetV3Small_1_expanded_conv_project_bn_1_batchnorm_add_1_cast_fp16 = conv(bias = const_79_to_fp16, dilations = functional_1_MobileNetV3Small_1_expanded_conv_project_bn_1_batchnorm_mul_1x_dilations_0, groups = functional_1_MobileNetV3Small_1_expanded_conv_project_bn_1_batchnorm_mul_1x_groups_0, pad = functional_1_MobileNetV3Small_1_expanded_conv_project_bn_1_batchnorm_mul_1x_pad_0, pad_type = functional_1_MobileNetV3Small_1_expanded_conv_project_bn_1_batchnorm_mul_1x_pad_type_0, strides = functional_1_MobileNetV3Small_1_expanded_conv_project_bn_1_batchnorm_mul_1x_strides_0, weight = transpose_8_to_fp16, x = functional_1_MobileNetV3Small_1_expanded_conv_squeeze_excite_mul_1_Mul_cast_fp16)[name = tensor<string, []>("functional_1_MobileNetV3Small_1_expanded_conv_project_bn_1_batchnorm_add_1_cast_fp16")];
            tensor<string, []> functional_1_MobileNetV3Small_1_expanded_conv_1_expand_bn_1_batchnorm_mul_1x_pad_type_0 = const()[name = tensor<string, []>("functional_1_MobileNetV3Small_1_expanded_conv_1_expand_bn_1_batchnorm_mul_1x_pad_type_0"), val = tensor<string, []>("same")];
            tensor<int32, [2]> functional_1_MobileNetV3Small_1_expanded_conv_1_expand_bn_1_batchnorm_mul_1x_strides_0 = const()[name = tensor<string, []>("functional_1_MobileNetV3Small_1_expanded_conv_1_expand_bn_1_batchnorm_mul_1x_strides_0"), val = tensor<int32, [2]>([1, 1])];
            tensor<int32, [2]> functional_1_MobileNetV3Small_1_expanded_conv_1_expand_bn_1_batchnorm_mul_1x_dilations_0 = const()[name = tensor<string, []>("functional_1_MobileNetV3Small_1_expanded_conv_1_expand_bn_1_batchnorm_mul_1x_dilations_0"), val = tensor<int32, [2]>([1, 1])];
            tensor<int32, []> functional_1_MobileNetV3Small_1_expanded_conv_1_expand_bn_1_batchnorm_mul_1x_groups_0 = const()[name = tensor<string, []>("functional_1_MobileNetV3Small_1_expanded_conv_1_expand_bn_1_batchnorm_mul_1x_groups_0"), val = tensor<int32, []>(1)];
            tensor<int32, [4]> functional_1_MobileNetV3Small_1_expanded_conv_1_expand_bn_1_batchnorm_mul_1x_pad_0 = const()[name = tensor<string, []>("functional_1_MobileNetV3Small_1_expanded_conv_1_expand_bn_1_batchnorm_mul_1x_pad_0"), val = tensor<int32, [4]>([0, 0, 0, 0])];
            tensor<fp16, [72, 16, 1, 1]> transpose_10_to_fp16 = const()[name = tensor<string, []>("transpose_10_to_fp16"), val = tensor<fp16, [72, 16, 1, 1]>(BLOBFILE(path = tensor<string, []>("@model_path/weights/weight.bin"), offset = tensor<uint64, []>(3136)))];
            tensor<fp16, [72]> const_80_to_fp16 = const()[name = tensor<string, []>("const_80_to_fp16"), val = tensor<fp16, [72]>(BLOBFILE(path = tensor<string, []>("@model_path/weights/weight.bin"), offset = tensor<uint64, []>(5504)))];
            tensor<fp16, [1, 72, 56, 56]> functional_1_MobileNetV3Small_1_expanded_conv_1_expand_bn_1_batchnorm_add_1_cast_fp16 = conv(bias = const_80_to_fp16, dilations = functional_1_MobileNetV3Small_1_expanded_conv_1_expand_bn_1_batchnorm_mul_1x_dilations_0, groups = functional_1_MobileNetV3Small_1_expanded_conv_1_expand_bn_1_batchnorm_mul_1x_groups_0, pad = functional_1_MobileNetV3Small_1_expanded_conv_1_expand_bn_1_batchnorm_mul_1x_pad_0, pad_type = functional_1_MobileNetV3Small_1_expanded_conv_1_expand_bn_1_batchnorm_mul_1x_pad_type_0, strides = functional_1_MobileNetV3Small_1_expanded_conv_1_expand_bn_1_batchnorm_mul_1x_strides_0, weight = transpose_10_to_fp16, x = functional_1_MobileNetV3Small_1_expanded_conv_project_bn_1_batchnorm_add_1_cast_fp16)[name = tensor<string, []>("functional_1_MobileNetV3Small_1_expanded_conv_1_expand_bn_1_batchnorm_add_1_cast_fp16")];
            tensor<fp16, [1, 72, 56, 56]> functional_1_MobileNetV3Small_1_re_lu_2_1_Relu_cast_fp16 = relu(x = functional_1_MobileNetV3Small_1_expanded_conv_1_expand_bn_1_batchnorm_add_1_cast_fp16)[name = tensor<string, []>("functional_1_MobileNetV3Small_1_re_lu_2_1_Relu_cast_fp16")];
            tensor<string, []> pad_1_mode_0 = const()[name = tensor<string, []>("pad_1_mode_0"), val = tensor<string, []>("constant")];
            tensor<int32, [8]> pad_5_pad_0 = const()[name = tensor<string, []>("pad_5_pad_0"), val = tensor<int32, [8]>([0, 0, 0, 0, 0, 1, 0, 1])];
            tensor<fp16, []> const_1_to_fp16 = const()[name = tensor<string, []>("const_1_to_fp16"), val = tensor<fp16, []>(0x0p+0)];
            tensor<fp16, [1, 72, 57, 57]> pad_5_cast_fp16 = pad(constant_val = const_1_to_fp16, mode = pad_1_mode_0, pad = pad_5_pad_0, x = functional_1_MobileNetV3Small_1_re_lu_2_1_Relu_cast_fp16)[name = tensor<string, []>("pad_5_cast_fp16")];
            tensor<string, []> functional_1_MobileNetV3Small_1_expanded_conv_1_depthwise_1_depthwisex_pad_type_0 = const()[name = tensor<string, []>("functional_1_MobileNetV3Small_1_expanded_conv_1_depthwise_1_depthwisex_pad_type_0"), val = tensor<string, []>("valid")];
            tensor<int32, [2]> functional_1_MobileNetV3Small_1_expanded_conv_1_depthwise_1_depthwisex_strides_0 = const()[name = tensor<string, []>("functional_1_MobileNetV3Small_1_expanded_conv_1_depthwise_1_depthwisex_strides_0"), val = tensor<int32, [2]>([2, 2])];
            tensor<int32, [2]> functional_1_MobileNetV3Small_1_expanded_conv_1_depthwise_1_depthwisex_dilations_0 = const()[name = tensor<string, []>("functional_1_MobileNetV3Small_1_expanded_conv_1_depthwise_1_depthwisex_dilations_0"), val = tensor<int32, [2]>([1, 1])];
            tensor<int32, []> functional_1_MobileNetV3Small_1_expanded_conv_1_depthwise_1_depthwisex_groups_0 = const()[name = tensor<string, []>("functional_1_MobileNetV3Small_1_expanded_conv_1_depthwise_1_depthwisex_groups_0"), val = tensor<int32, []>(72)];
            tensor<int32, [4]> functional_1_MobileNetV3Small_1_expanded_conv_1_depthwise_1_depthwisex_pad_0 = const()[name = tensor<string, []>("functional_1_MobileNetV3Small_1_expanded_conv_1_depthwise_1_depthwisex_pad_0"), val = tensor<int32, [4]>([0, 0, 0, 0])];
            tensor<fp16, [72, 1, 3, 3]> functional_1_MobileNetV3Small_1_expanded_conv_1_depthwise_bn_1_batchnorm_mul_1_weight_0_to_fp16 = const()[name = tensor<string, []>("functional_1_MobileNetV3Small_1_expanded_conv_1_depthwise_bn_1_batchnorm_mul_1_weight_0_to_fp16"), val = tensor<fp16, [72, 1, 3, 3]>(BLOBFILE(path = tensor<string, []>("@model_path/weights/weight.bin"), offset = tensor<uint64, []>(5760)))];
            tensor<fp16, [72]> const_81_to_fp16 = const()[name = tensor<string, []>("const_81_to_fp16"), val = tensor<fp16, [72]>(BLOBFILE(path = tensor<string, []>("@model_path/weights/weight.bin"), offset = tensor<uint64, []>(7168)))];
            tensor<fp16, [1, 72, 28, 28]> functional_1_MobileNetV3Small_1_expanded_conv_1_depthwise_bn_1_batchnorm_add_1_cast_fp16 = conv(bias = const_81_to_fp16, dilations = functional_1_MobileNetV3Small_1_expanded_conv_1_depthwise_1_depthwisex_dilations_0, groups = functional_1_MobileNetV3Small_1_expanded_conv_1_depthwise_1_depthwisex_groups_0, pad = functional_1_MobileNetV3Small_1_expanded_conv_1_depthwise_1_depthwisex_pad_0, pad_type = functional_1_MobileNetV3Small_1_expanded_conv_1_depthwise_1_depthwisex_pad_type_0, strides = functional_1_MobileNetV3Small_1_expanded_conv_1_depthwise_1_depthwisex_strides_0, weight = functional_1_MobileNetV3Small_1_expanded_conv_1_depthwise_bn_1_batchnorm_mul_1_weight_0_to_fp16, x = pad_5_cast_fp16)[name = tensor<string, []>("functional_1_MobileNetV3Small_1_expanded_conv_1_depthwise_bn_1_batchnorm_add_1_cast_fp16")];
            tensor<fp16, [1, 72, 28, 28]> functional_1_MobileNetV3Small_1_re_lu_3_1_Relu_cast_fp16 = relu(x = functional_1_MobileNetV3Small_1_expanded_conv_1_depthwise_bn_1_batchnorm_add_1_cast_fp16)[name = tensor<string, []>("functional_1_MobileNetV3Small_1_re_lu_3_1_Relu_cast_fp16")];
            tensor<string, []> functional_1_MobileNetV3Small_1_expanded_conv_1_project_bn_1_batchnorm_mul_1x_pad_type_0 = const()[name = tensor<string, []>("functional_1_MobileNetV3Small_1_expanded_conv_1_project_bn_1_batchnorm_mul_1x_pad_type_0"), val = tensor<string, []>("same")];
            tensor<int32, [2]> functional_1_MobileNetV3Small_1_expanded_conv_1_project_bn_1_batchnorm_mul_1x_strides_0 = const()[name = tensor<string, []>("functional_1_MobileNetV3Small_1_expanded_conv_1_project_bn_1_batchnorm_mul_1x_strides_0"), val = tensor<int32, [2]>([1, 1])];
            tensor<int32, [2]> functional_1_MobileNetV3Small_1_expanded_conv_1_project_bn_1_batchnorm_mul_1x_dilations_0 = const()[name = tensor<string, []>("functional_1_MobileNetV3Small_1_expanded_conv_1_project_bn_1_batchnorm_mul_1x_dilations_0"), val = tensor<int32, [2]>([1, 1])];
            tensor<int32, []> functional_1_MobileNetV3Small_1_expanded_conv_1_project_bn_1_batchnorm_mul_1x_groups_0 = const()[name = tensor<string, []>("functional_1_MobileNetV3Small_1_expanded_conv_1_project_bn_1_batchnorm_mul_1x_groups_0"), val = tensor<int32, []>(1)];
            tensor<int32, [4]> functional_1_MobileNetV3Small_1_expanded_conv_1_project_bn_1_batchnorm_mul_1x_pad_0 = const()[name = tensor<string, []>("functional_1_MobileNetV3Small_1_expanded_conv_1_project_bn_1_batchnorm_mul_1x_pad_0"), val = tensor<int32, [4]>([0, 0, 0, 0])];
            tensor<fp16, [24, 72, 1, 1]> transpose_14_to_fp16 = const()[name = tensor<string, []>("transpose_14_to_fp16"), val = tensor<fp16, [24, 72, 1, 1]>(BLOBFILE(path = tensor<string, []>("@model_path/weights/weight.bin"), offset = tensor<uint64, []>(7424)))];
            tensor<fp16, [24]> const_82_to_fp16 = const()[name = tensor<string, []>("const_82_to_fp16"), val = tensor<fp16, [24]>(BLOBFILE(path = tensor<string, []>("@model_path/weights/weight.bin"), offset = tensor<uint64, []>(10944)))];
            tensor<fp16, [1, 24, 28, 28]> functional_1_MobileNetV3Small_1_expanded_conv_1_project_bn_1_batchnorm_add_1_cast_fp16 = conv(bias = const_82_to_fp16, dilations = functional_1_MobileNetV3Small_1_expanded_conv_1_project_bn_1_batchnorm_mul_1x_dilations_0, groups = functional_1_MobileNetV3Small_1_expanded_conv_1_project_bn_1_batchnorm_mul_1x_groups_0, pad = functional_1_MobileNetV3Small_1_expanded_conv_1_project_bn_1_batchnorm_mul_1x_pad_0, pad_type = functional_1_MobileNetV3Small_1_expanded_conv_1_project_bn_1_batchnorm_mul_1x_pad_type_0, strides = functional_1_MobileNetV3Small_1_expanded_conv_1_project_bn_1_batchnorm_mul_1x_strides_0, weight = transpose_14_to_fp16, x = functional_1_MobileNetV3Small_1_re_lu_3_1_Relu_cast_fp16)[name = tensor<string, []>("functional_1_MobileNetV3Small_1_expanded_conv_1_project_bn_1_batchnorm_add_1_cast_fp16")];
            tensor<string, []> functional_1_MobileNetV3Small_1_expanded_conv_2_expand_bn_1_batchnorm_mul_1x_pad_type_0 = const()[name = tensor<string, []>("functional_1_MobileNetV3Small_1_expanded_conv_2_expand_bn_1_batchnorm_mul_1x_pad_type_0"), val = tensor<string, []>("same")];
            tensor<int32, [2]> functional_1_MobileNetV3Small_1_expanded_conv_2_expand_bn_1_batchnorm_mul_1x_strides_0 = const()[name = tensor<string, []>("functional_1_MobileNetV3Small_1_expanded_conv_2_expand_bn_1_batchnorm_mul_1x_strides_0"), val = tensor<int32, [2]>([1, 1])];
            tensor<int32, [2]> functional_1_MobileNetV3Small_1_expanded_conv_2_expand_bn_1_batchnorm_mul_1x_dilations_0 = const()[name = tensor<string, []>("functional_1_MobileNetV3Small_1_expanded_conv_2_expand_bn_1_batchnorm_mul_1x_dilations_0"), val = tensor<int32, [2]>([1, 1])];
            tensor<int32, []> functional_1_MobileNetV3Small_1_expanded_conv_2_expand_bn_1_batchnorm_mul_1x_groups_0 = const()[name = tensor<string, []>("functional_1_MobileNetV3Small_1_expanded_conv_2_expand_bn_1_batchnorm_mul_1x_groups_0"), val = tensor<int32, []>(1)];
            tensor<int32, [4]> functional_1_MobileNetV3Small_1_expanded_conv_2_expand_bn_1_batchnorm_mul_1x_pad_0 = const()[name = tensor<string, []>("functional_1_MobileNetV3Small_1_expanded_conv_2_expand_bn_1_batchnorm_mul_1x_pad_0"), val = tensor<int32, [4]>([0, 0, 0, 0])];
            tensor<fp16, [88, 24, 1, 1]> transpose_16_to_fp16 = const()[name = tensor<string, []>("transpose_16_to_fp16"), val = tensor<fp16, [88, 24, 1, 1]>(BLOBFILE(path = tensor<string, []>("@model_path/weights/weight.bin"), offset = tensor<uint64, []>(11072)))];
            tensor<fp16, [88]> const_83_to_fp16 = const()[name = tensor<string, []>("const_83_to_fp16"), val = tensor<fp16, [88]>(BLOBFILE(path = tensor<string, []>("@model_path/weights/weight.bin"), offset = tensor<uint64, []>(15360)))];
            tensor<fp16, [1, 88, 28, 28]> functional_1_MobileNetV3Small_1_expanded_conv_2_expand_bn_1_batchnorm_add_1_cast_fp16 = conv(bias = const_83_to_fp16, dilations = functional_1_MobileNetV3Small_1_expanded_conv_2_expand_bn_1_batchnorm_mul_1x_dilations_0, groups = functional_1_MobileNetV3Small_1_expanded_conv_2_expand_bn_1_batchnorm_mul_1x_groups_0, pad = functional_1_MobileNetV3Small_1_expanded_conv_2_expand_bn_1_batchnorm_mul_1x_pad_0, pad_type = functional_1_MobileNetV3Small_1_expanded_conv_2_expand_bn_1_batchnorm_mul_1x_pad_type_0, strides = functional_1_MobileNetV3Small_1_expanded_conv_2_expand_bn_1_batchnorm_mul_1x_strides_0, weight = transpose_16_to_fp16, x = functional_1_MobileNetV3Small_1_expanded_conv_1_project_bn_1_batchnorm_add_1_cast_fp16)[name = tensor<string, []>("functional_1_MobileNetV3Small_1_expanded_conv_2_expand_bn_1_batchnorm_add_1_cast_fp16")];
            tensor<fp16, [1, 88, 28, 28]> functional_1_MobileNetV3Small_1_re_lu_4_1_Relu_cast_fp16 = relu(x = functional_1_MobileNetV3Small_1_expanded_conv_2_expand_bn_1_batchnorm_add_1_cast_fp16)[name = tensor<string, []>("functional_1_MobileNetV3Small_1_re_lu_4_1_Relu_cast_fp16")];
            tensor<string, []> functional_1_MobileNetV3Small_1_expanded_conv_2_depthwise_1_depthwisex_pad_type_0 = const()[name = tensor<string, []>("functional_1_MobileNetV3Small_1_expanded_conv_2_depthwise_1_depthwisex_pad_type_0"), val = tensor<string, []>("same")];
            tensor<int32, [2]> functional_1_MobileNetV3Small_1_expanded_conv_2_depthwise_1_depthwisex_strides_0 = const()[name = tensor<string, []>("functional_1_MobileNetV3Small_1_expanded_conv_2_depthwise_1_depthwisex_strides_0"), val = tensor<int32, [2]>([1, 1])];
            tensor<int32, [2]> functional_1_MobileNetV3Small_1_expanded_conv_2_depthwise_1_depthwisex_dilations_0 = const()[name = tensor<string, []>("functional_1_MobileNetV3Small_1_expanded_conv_2_depthwise_1_depthwisex_dilations_0"), val = tensor<int32, [2]>([1, 1])];
            tensor<int32, []> functional_1_MobileNetV3Small_1_expanded_conv_2_depthwise_1_depthwisex_groups_0 = const()[name = tensor<string, []>("functional_1_MobileNetV3Small_1_expanded_conv_2_depthwise_1_depthwisex_groups_0"), val = tensor<int32, []>(88)];
            tensor<int32, [4]> functional_1_MobileNetV3Small_1_expanded_conv_2_depthwise_1_depthwisex_pad_0 = const()[name = tensor<string, []>("functional_1_MobileNetV3Small_1_expanded_conv_2_depthwise_1_depthwisex_pad_0"), val = tensor<int32, [4]>([0, 0, 0, 0])];
            tensor<fp16, [88, 1, 3, 3]> functional_1_MobileNetV3Small_1_expanded_conv_2_depthwise_bn_1_batchnorm_mul_1_weight_0_to_fp16 = const()[name = tensor<string, []>("functional_1_MobileNetV3Small_1_expanded_conv_2_depthwise_bn_1_batchnorm_mul_1_weight_0_to_fp16"), val = tensor<fp16, [88, 1, 3, 3]>(BLOBFILE(path = tensor<string, []>("@model_path/weights/weight.bin"), offset = tensor<uint64, []>(15616)))];
            tensor<fp16, [88]> const_84_to_fp16 = const()[name = tensor<string, []>("const_84_to_fp16"), val = tensor<fp16, [88]>(BLOBFILE(path = tensor<string, []>("@model_path/weights/weight.bin"), offset = tensor<uint64, []>(17280)))];
            tensor<fp16, [1, 88, 28, 28]> functional_1_MobileNetV3Small_1_expanded_conv_2_depthwise_bn_1_batchnorm_add_1_cast_fp16 = conv(bias = const_84_to_fp16, dilations = functional_1_MobileNetV3Small_1_expanded_conv_2_depthwise_1_depthwisex_dilations_0, groups = functional_1_MobileNetV3Small_1_expanded_conv_2_depthwise_1_depthwisex_groups_0, pad = functional_1_MobileNetV3Small_1_expanded_conv_2_depthwise_1_depthwisex_pad_0, pad_type = functional_1_MobileNetV3Small_1_expanded_conv_2_depthwise_1_depthwisex_pad_type_0, strides = functional_1_MobileNetV3Small_1_expanded_conv_2_depthwise_1_depthwisex_strides_0, weight = functional_1_MobileNetV3Small_1_expanded_conv_2_depthwise_bn_1_batchnorm_mul_1_weight_0_to_fp16, x = functional_1_MobileNetV3Small_1_re_lu_4_1_Relu_cast_fp16)[name = tensor<string, []>("functional_1_MobileNetV3Small_1_expanded_conv_2_depthwise_bn_1_batchnorm_add_1_cast_fp16")];
            tensor<fp16, [1, 88, 28, 28]> functional_1_MobileNetV3Small_1_re_lu_5_1_Relu_cast_fp16 = relu(x = functional_1_MobileNetV3Small_1_expanded_conv_2_depthwise_bn_1_batchnorm_add_1_cast_fp16)[name = tensor<string, []>("functional_1_MobileNetV3Small_1_re_lu_5_1_Relu_cast_fp16")];
            tensor<string, []> functional_1_MobileNetV3Small_1_expanded_conv_2_project_bn_1_batchnorm_mul_1x_pad_type_0 = const()[name = tensor<string, []>("functional_1_MobileNetV3Small_1_expanded_conv_2_project_bn_1_batchnorm_mul_1x_pad_type_0"), val = tensor<string, []>("same")];
            tensor<int32, [2]> functional_1_MobileNetV3Small_1_expanded_conv_2_project_bn_1_batchnorm_mul_1x_strides_0 = const()[name = tensor<string, []>("functional_1_MobileNetV3Small_1_expanded_conv_2_project_bn_1_batchnorm_mul_1x_strides_0"), val = tensor<int32, [2]>([1, 1])];
            tensor<int32, [2]> functional_1_MobileNetV3Small_1_expanded_conv_2_project_bn_1_batchnorm_mul_1x_dilations_0 = const()[name = tensor<string, []>("functional_1_MobileNetV3Small_1_expanded_conv_2_project_bn_1_batchnorm_mul_1x_dilations_0"), val = tensor<int32, [2]>([1, 1])];
            tensor<int32, []> functional_1_MobileNetV3Small_1_expanded_conv_2_project_bn_1_batchnorm_mul_1x_groups_0 = const()[name = tensor<string, []>("functional_1_MobileNetV3Small_1_expanded_conv_2_project_bn_1_batchnorm_mul_1x_groups_0"), val = tensor<int32, []>(1)];
            tensor<int32, [4]> functional_1_MobileNetV3Small_1_expanded_conv_2_project_bn_1_batchnorm_mul_1x_pad_0 = const()[name = tensor<string, []>("functional_1_MobileNetV3Small_1_expanded_conv_2_project_bn_1_batchnorm_mul_1x_pad_0"), val = tensor<int32, [4]>([0, 0, 0, 0])];
            tensor<fp16, [24, 88, 1, 1]> transpose_20_to_fp16 = const()[name = tensor<string, []>("transpose_20_to_fp16"), val = tensor<fp16, [24, 88, 1, 1]>(BLOBFILE(path = tensor<string, []>("@model_path/weights/weight.bin"), offset = tensor<uint64, []>(17536)))];
            tensor<fp16, [24]> const_85_to_fp16 = const()[name = tensor<string, []>("const_85_to_fp16"), val = tensor<fp16, [24]>(BLOBFILE(path = tensor<string, []>("@model_path/weights/weight.bin"), offset = tensor<uint64, []>(21824)))];
            tensor<fp16, [1, 24, 28, 28]> functional_1_MobileNetV3Small_1_expanded_conv_2_project_bn_1_batchnorm_add_1_cast_fp16 = conv(bias = const_85_to_fp16, dilations = functional_1_MobileNetV3Small_1_expanded_conv_2_project_bn_1_batchnorm_mul_1x_dilations_0, groups = functional_1_MobileNetV3Small_1_expanded_conv_2_project_bn_1_batchnorm_mul_1x_groups_0, pad = functional_1_MobileNetV3Small_1_expanded_conv_2_project_bn_1_batchnorm_mul_1x_pad_0, pad_type = functional_1_MobileNetV3Small_1_expanded_conv_2_project_bn_1_batchnorm_mul_1x_pad_type_0, strides = functional_1_MobileNetV3Small_1_expanded_conv_2_project_bn_1_batchnorm_mul_1x_strides_0, weight = transpose_20_to_fp16, x = functional_1_MobileNetV3Small_1_re_lu_5_1_Relu_cast_fp16)[name = tensor<string, []>("functional_1_MobileNetV3Small_1_expanded_conv_2_project_bn_1_batchnorm_add_1_cast_fp16")];
            tensor<fp16, [1, 24, 28, 28]> functional_1_MobileNetV3Small_1_expanded_conv_2_add_1_Add_cast_fp16 = add(x = functional_1_MobileNetV3Small_1_expanded_conv_1_project_bn_1_batchnorm_add_1_cast_fp16, y = functional_1_MobileNetV3Small_1_expanded_conv_2_project_bn_1_batchnorm_add_1_cast_fp16)[name = tensor<string, []>("functional_1_MobileNetV3Small_1_expanded_conv_2_add_1_Add_cast_fp16")];
            tensor<string, []> functional_1_MobileNetV3Small_1_expanded_conv_3_expand_bn_1_batchnorm_mul_1x_pad_type_0 = const()[name = tensor<string, []>("functional_1_MobileNetV3Small_1_expanded_conv_3_expand_bn_1_batchnorm_mul_1x_pad_type_0"), val = tensor<string, []>("same")];
            tensor<int32, [2]> functional_1_MobileNetV3Small_1_expanded_conv_3_expand_bn_1_batchnorm_mul_1x_strides_0 = const()[name = tensor<string, []>("functional_1_MobileNetV3Small_1_expanded_conv_3_expand_bn_1_batchnorm_mul_1x_strides_0"), val = tensor<int32, [2]>([1, 1])];
            tensor<int32, [2]> functional_1_MobileNetV3Small_1_expanded_conv_3_expand_bn_1_batchnorm_mul_1x_dilations_0 = const()[name = tensor<string, []>("functional_1_MobileNetV3Small_1_expanded_conv_3_expand_bn_1_batchnorm_mul_1x_dilations_0"), val = tensor<int32, [2]>([1, 1])];
            tensor<int32, []> functional_1_MobileNetV3Small_1_expanded_conv_3_expand_bn_1_batchnorm_mul_1x_groups_0 = const()[name = tensor<string, []>("functional_1_MobileNetV3Small_1_expanded_conv_3_expand_bn_1_batchnorm_mul_1x_groups_0"), val = tensor<int32, []>(1)];
            tensor<int32, [4]> functional_1_MobileNetV3Small_1_expanded_conv_3_expand_bn_1_batchnorm_mul_1x_pad_0 = const()[name = tensor<string, []>("functional_1_MobileNetV3Small_1_expanded_conv_3_expand_bn_1_batchnorm_mul_1x_pad_0"), val = tensor<int32, [4]>([0, 0, 0, 0])];
            tensor<fp16, [96, 24, 1, 1]> transpose_22_to_fp16 = const()[name = tensor<string, []>("transpose_22_to_fp16"), val = tensor<fp16, [96, 24, 1, 1]>(BLOBFILE(path = tensor<string, []>("@model_path/weights/weight.bin"), offset = tensor<uint64, []>(21952)))];
            tensor<fp16, [96]> const_86_to_fp16 = const()[name = tensor<string, []>("const_86_to_fp16"), val = tensor<fp16, [96]>(BLOBFILE(path = tensor<string, []>("@model_path/weights/weight.bin"), offset = tensor<uint64, []>(26624)))];
            tensor<fp16, [1, 96, 28, 28]> functional_1_MobileNetV3Small_1_expanded_conv_3_expand_bn_1_batchnorm_add_1_cast_fp16 = conv(bias = const_86_to_fp16, dilations = functional_1_MobileNetV3Small_1_expanded_conv_3_expand_bn_1_batchnorm_mul_1x_dilations_0, groups = functional_1_MobileNetV3Small_1_expanded_conv_3_expand_bn_1_batchnorm_mul_1x_groups_0, pad = functional_1_MobileNetV3Small_1_expanded_conv_3_expand_bn_1_batchnorm_mul_1x_pad_0, pad_type = functional_1_MobileNetV3Small_1_expanded_conv_3_expand_bn_1_batchnorm_mul_1x_pad_type_0, strides = functional_1_MobileNetV3Small_1_expanded_conv_3_expand_bn_1_batchnorm_mul_1x_strides_0, weight = transpose_22_to_fp16, x = functional_1_MobileNetV3Small_1_expanded_conv_2_add_1_Add_cast_fp16)[name = tensor<string, []>("functional_1_MobileNetV3Small_1_expanded_conv_3_expand_bn_1_batchnorm_add_1_cast_fp16")];
            tensor<fp16, []> functional_1_MobileNetV3Small_1_activation_1_2_Const_to_fp16 = const()[name = tensor<string, []>("functional_1_MobileNetV3Small_1_activation_1_2_Const_to_fp16"), val = tensor<fp16, []>(0x1.8p+1)];
            tensor<fp16, [1, 96, 28, 28]> functional_1_MobileNetV3Small_1_activation_1_2_add_cast_fp16 = add(x = functional_1_MobileNetV3Small_1_expanded_conv_3_expand_bn_1_batchnorm_add_1_cast_fp16, y = functional_1_MobileNetV3Small_1_activation_1_2_Const_to_fp16)[name = tensor<string, []>("functional_1_MobileNetV3Small_1_activation_1_2_add_cast_fp16")];
            tensor<fp16, [1, 96, 28, 28]> functional_1_MobileNetV3Small_1_activation_1_2_Relu6_cast_fp16 = relu6(x = functional_1_MobileNetV3Small_1_activation_1_2_add_cast_fp16)[name = tensor<string, []>("functional_1_MobileNetV3Small_1_activation_1_2_Relu6_cast_fp16")];
            tensor<fp16, []> ConstantFolding_functional_1_MobileNetV3Small_1_activation_1_2_truediv_recip_to_fp16 = const()[name = tensor<string, []>("ConstantFolding_functional_1_MobileNetV3Small_1_activation_1_2_truediv_recip_to_fp16"), val = tensor<fp16, []>(0x1.554p-3)];
            tensor<fp16, [1, 96, 28, 28]> functional_1_MobileNetV3Small_1_activation_1_2_truediv_cast_fp16 = mul(x = functional_1_MobileNetV3Small_1_activation_1_2_Relu6_cast_fp16, y = ConstantFolding_functional_1_MobileNetV3Small_1_activation_1_2_truediv_recip_to_fp16)[name = tensor<string, []>("functional_1_MobileNetV3Small_1_activation_1_2_truediv_cast_fp16")];
            tensor<fp16, [1, 96, 28, 28]> functional_1_MobileNetV3Small_1_activation_1_2_mul_cast_fp16 = mul(x = functional_1_MobileNetV3Small_1_expanded_conv_3_expand_bn_1_batchnorm_add_1_cast_fp16, y = functional_1_MobileNetV3Small_1_activation_1_2_truediv_cast_fp16)[name = tensor<string, []>("functional_1_MobileNetV3Small_1_activation_1_2_mul_cast_fp16")];
            tensor<string, []> pad_2_mode_0 = const()[name = tensor<string, []>("pad_2_mode_0"), val = tensor<string, []>("constant")];
            tensor<int32, [8]> pad_6_pad_0 = const()[name = tensor<string, []>("pad_6_pad_0"), val = tensor<int32, [8]>([0, 0, 0, 0, 1, 2, 1, 2])];
            tensor<fp16, []> const_2_to_fp16 = const()[name = tensor<string, []>("const_2_to_fp16"), val = tensor<fp16, []>(0x0p+0)];
            tensor<fp16, [1, 96, 31, 31]> pad_6_cast_fp16 = pad(constant_val = const_2_to_fp16, mode = pad_2_mode_0, pad = pad_6_pad_0, x = functional_1_MobileNetV3Small_1_activation_1_2_mul_cast_fp16)[name = tensor<string, []>("pad_6_cast_fp16")];
            tensor<string, []> functional_1_MobileNetV3Small_1_expanded_conv_3_depthwise_1_depthwisex_pad_type_0 = const()[name = tensor<string, []>("functional_1_MobileNetV3Small_1_expanded_conv_3_depthwise_1_depthwisex_pad_type_0"), val = tensor<string, []>("valid")];
            tensor<int32, [2]> functional_1_MobileNetV3Small_1_expanded_conv_3_depthwise_1_depthwisex_strides_0 = const()[name = tensor<string, []>("functional_1_MobileNetV3Small_1_expanded_conv_3_depthwise_1_depthwisex_strides_0"), val = tensor<int32, [2]>([2, 2])];
            tensor<int32, [2]> functional_1_MobileNetV3Small_1_expanded_conv_3_depthwise_1_depthwisex_dilations_0 = const()[name = tensor<string, []>("functional_1_MobileNetV3Small_1_expanded_conv_3_depthwise_1_depthwisex_dilations_0"), val = tensor<int32, [2]>([1, 1])];
            tensor<int32, []> functional_1_MobileNetV3Small_1_expanded_conv_3_depthwise_1_depthwisex_groups_0 = const()[name = tensor<string, []>("functional_1_MobileNetV3Small_1_expanded_conv_3_depthwise_1_depthwisex_groups_0"), val = tensor<int32, []>(96)];
            tensor<int32, [4]> functional_1_MobileNetV3Small_1_expanded_conv_3_depthwise_1_depthwisex_pad_0 = const()[name = tensor<string, []>("functional_1_MobileNetV3Small_1_expanded_conv_3_depthwise_1_depthwisex_pad_0"), val = tensor<int32, [4]>([0, 0, 0, 0])];
            tensor<fp16, [96, 1, 5, 5]> functional_1_MobileNetV3Small_1_expanded_conv_3_depthwise_bn_1_batchnorm_mul_1_weight_0_to_fp16 = const()[name = tensor<string, []>("functional_1_MobileNetV3Small_1_expanded_conv_3_depthwise_bn_1_batchnorm_mul_1_weight_0_to_fp16"), val = tensor<fp16, [96, 1, 5, 5]>(BLOBFILE(path = tensor<string, []>("@model_path/weights/weight.bin"), offset = tensor<uint64, []>(26880)))];
            tensor<fp16, [96]> const_87_to_fp16 = const()[name = tensor<string, []>("const_87_to_fp16"), val = tensor<fp16, [96]>(BLOBFILE(path = tensor<string, []>("@model_path/weights/weight.bin"), offset = tensor<uint64, []>(31744)))];
            tensor<fp16, [1, 96, 14, 14]> functional_1_MobileNetV3Small_1_expanded_conv_3_depthwise_bn_1_batchnorm_add_1_cast_fp16 = conv(bias = const_87_to_fp16, dilations = functional_1_MobileNetV3Small_1_expanded_conv_3_depthwise_1_depthwisex_dilations_0, groups = functional_1_MobileNetV3Small_1_expanded_conv_3_depthwise_1_depthwisex_groups_0, pad = functional_1_MobileNetV3Small_1_expanded_conv_3_depthwise_1_depthwisex_pad_0, pad_type = functional_1_MobileNetV3Small_1_expanded_conv_3_depthwise_1_depthwisex_pad_type_0, strides = functional_1_MobileNetV3Small_1_expanded_conv_3_depthwise_1_depthwisex_strides_0, weight = functional_1_MobileNetV3Small_1_expanded_conv_3_depthwise_bn_1_batchnorm_mul_1_weight_0_to_fp16, x = pad_6_cast_fp16)[name = tensor<string, []>("functional_1_MobileNetV3Small_1_expanded_conv_3_depthwise_bn_1_batchnorm_add_1_cast_fp16")];
            tensor<fp16, []> functional_1_MobileNetV3Small_1_activation_2_1_Const_to_fp16 = const()[name = tensor<string, []>("functional_1_MobileNetV3Small_1_activation_2_1_Const_to_fp16"), val = tensor<fp16, []>(0x1.8p+1)];
            tensor<fp16, [1, 96, 14, 14]> functional_1_MobileNetV3Small_1_activation_2_1_add_cast_fp16 = add(x = functional_1_MobileNetV3Small_1_expanded_conv_3_depthwise_bn_1_batchnorm_add_1_cast_fp16, y = functional_1_MobileNetV3Small_1_activation_2_1_Const_to_fp16)[name = tensor<string, []>("functional_1_MobileNetV3Small_1_activation_2_1_add_cast_fp16")];
            tensor<fp16, [1, 96, 14, 14]> functional_1_MobileNetV3Small_1_activation_2_1_Relu6_cast_fp16 = relu6(x = functional_1_MobileNetV3Small_1_activation_2_1_add_cast_fp16)[name = tensor<string, []>("functional_1_MobileNetV3Small_1_activation_2_1_Relu6_cast_fp16")];
            tensor<fp16, []> ConstantFolding_functional_1_MobileNetV3Small_1_activation_2_1_truediv_recip_to_fp16 = const()[name = tensor<string, []>("ConstantFolding_functional_1_MobileNetV3Small_1_activation_2_1_truediv_recip_to_fp16"), val = tensor<fp16, []>(0x1.554p-3)];
            tensor<fp16, [1, 96, 14, 14]> functional_1_MobileNetV3Small_1_activation_2_1_truediv_cast_fp16 = mul(x = functional_1_MobileNetV3Small_1_activation_2_1_Relu6_cast_fp16, y = ConstantFolding_functional_1_MobileNetV3Small_1_activation_2_1_truediv_recip_to_fp16)[name = tensor<string, []>("functional_1_MobileNetV3Small_1_activation_2_1_truediv_cast_fp16")];
            tensor<fp16, [1, 96, 14, 14]> functional_1_MobileNetV3Small_1_activation_2_1_mul_cast_fp16 = mul(x = functional_1_MobileNetV3Small_1_expanded_conv_3_depthwise_bn_1_batchnorm_add_1_cast_fp16, y = functional_1_MobileNetV3Small_1_activation_2_1_truediv_cast_fp16)[name = tensor<string, []>("functional_1_MobileNetV3Small_1_activation_2_1_mul_cast_fp16")];
            tensor<bool, []> functional_1_MobileNetV3Small_1_expanded_conv_3_squeeze_excite_avg_pool_1_Mean_keep_dims_0 = const()[name = tensor<string, []>("functional_1_MobileNetV3Small_1_expanded_conv_3_squeeze_excite_avg_pool_1_Mean_keep_dims_0"), val = tensor<bool, []>(true)];
            tensor<int32, [2]> const_22 = const()[name = tensor<string, []>("const_22"), val = tensor<int32, [2]>([2, 3])];
            tensor<fp16, [1, 96, 1, 1]> functional_1_MobileNetV3Small_1_expanded_conv_3_squeeze_excite_avg_pool_1_Mean_cast_fp16 = reduce_mean(axes = const_22, keep_dims = functional_1_MobileNetV3Small_1_expanded_conv_3_squeeze_excite_avg_pool_1_Mean_keep_dims_0, x = functional_1_MobileNetV3Small_1_activation_2_1_mul_cast_fp16)[name = tensor<string, []>("functional_1_MobileNetV3Small_1_expanded_conv_3_squeeze_excite_avg_pool_1_Mean_cast_fp16")];
            tensor<string, []> functional_1_MobileNetV3Small_1_expanded_conv_3_squeeze_excite_conv_1_convolutionx_pad_type_0 = const()[name = tensor<string, []>("functional_1_MobileNetV3Small_1_expanded_conv_3_squeeze_excite_conv_1_convolutionx_pad_type_0"), val = tensor<string, []>("same")];
            tensor<int32, [2]> functional_1_MobileNetV3Small_1_expanded_conv_3_squeeze_excite_conv_1_convolutionx_strides_0 = const()[name = tensor<string, []>("functional_1_MobileNetV3Small_1_expanded_conv_3_squeeze_excite_conv_1_convolutionx_strides_0"), val = tensor<int32, [2]>([1, 1])];
            tensor<int32, [2]> functional_1_MobileNetV3Small_1_expanded_conv_3_squeeze_excite_conv_1_convolutionx_dilations_0 = const()[name = tensor<string, []>("functional_1_MobileNetV3Small_1_expanded_conv_3_squeeze_excite_conv_1_convolutionx_dilations_0"), val = tensor<int32, [2]>([1, 1])];
            tensor<int32, []> functional_1_MobileNetV3Small_1_expanded_conv_3_squeeze_excite_conv_1_convolutionx_groups_0 = const()[name = tensor<string, []>("functional_1_MobileNetV3Small_1_expanded_conv_3_squeeze_excite_conv_1_convolutionx_groups_0"), val = tensor<int32, []>(1)];
            tensor<int32, [4]> functional_1_MobileNetV3Small_1_expanded_conv_3_squeeze_excite_conv_1_convolutionx_pad_0 = const()[name = tensor<string, []>("functional_1_MobileNetV3Small_1_expanded_conv_3_squeeze_excite_conv_1_convolutionx_pad_0"), val = tensor<int32, [4]>([0, 0, 0, 0])];
            tensor<fp16, [24, 96, 1, 1]> transpose_26_to_fp16 = const()[name = tensor<string, []>("transpose_26_to_fp16"), val = tensor<fp16, [24, 96, 1, 1]>(BLOBFILE(path = tensor<string, []>("@model_path/weights/weight.bin"), offset = tensor<uint64, []>(32000)))];
            tensor<fp16, [24]> const_88_to_fp16 = const()[name = tensor<string, []>("const_88_to_fp16"), val = tensor<fp16, [24]>(BLOBFILE(path = tensor<string, []>("@model_path/weights/weight.bin"), offset = tensor<uint64, []>(36672)))];
            tensor<fp16, [1, 24, 1, 1]> functional_1_MobileNetV3Small_1_expanded_conv_3_squeeze_excite_conv_1_BiasAdd_cast_fp16 = conv(bias = const_88_to_fp16, dilations = functional_1_MobileNetV3Small_1_expanded_conv_3_squeeze_excite_conv_1_convolutionx_dilations_0, groups = functional_1_MobileNetV3Small_1_expanded_conv_3_squeeze_excite_conv_1_convolutionx_groups_0, pad = functional_1_MobileNetV3Small_1_expanded_conv_3_squeeze_excite_conv_1_convolutionx_pad_0, pad_type = functional_1_MobileNetV3Small_1_expanded_conv_3_squeeze_excite_conv_1_convolutionx_pad_type_0, strides = functional_1_MobileNetV3Small_1_expanded_conv_3_squeeze_excite_conv_1_convolutionx_strides_0, weight = transpose_26_to_fp16, x = functional_1_MobileNetV3Small_1_expanded_conv_3_squeeze_excite_avg_pool_1_Mean_cast_fp16)[name = tensor<string, []>("functional_1_MobileNetV3Small_1_expanded_conv_3_squeeze_excite_conv_1_BiasAdd_cast_fp16")];
            tensor<fp16, [1, 24, 1, 1]> functional_1_MobileNetV3Small_1_expanded_conv_3_squeeze_excite_relu_1_Relu_cast_fp16 = relu(x = functional_1_MobileNetV3Small_1_expanded_conv_3_squeeze_excite_conv_1_BiasAdd_cast_fp16)[name = tensor<string, []>("functional_1_MobileNetV3Small_1_expanded_conv_3_squeeze_excite_relu_1_Relu_cast_fp16")];
            tensor<string, []> functional_1_MobileNetV3Small_1_expanded_conv_3_squeeze_excite_conv_1_2_convolutionx_pad_type_0 = const()[name = tensor<string, []>("functional_1_MobileNetV3Small_1_expanded_conv_3_squeeze_excite_conv_1_2_convolutionx_pad_type_0"), val = tensor<string, []>("same")];
            tensor<int32, [2]> functional_1_MobileNetV3Small_1_expanded_conv_3_squeeze_excite_conv_1_2_convolutionx_strides_0 = const()[name = tensor<string, []>("functional_1_MobileNetV3Small_1_expanded_conv_3_squeeze_excite_conv_1_2_convolutionx_strides_0"), val = tensor<int32, [2]>([1, 1])];
            tensor<int32, [2]> functional_1_MobileNetV3Small_1_expanded_conv_3_squeeze_excite_conv_1_2_convolutionx_dilations_0 = const()[name = tensor<string, []>("functional_1_MobileNetV3Small_1_expanded_conv_3_squeeze_excite_conv_1_2_convolutionx_dilations_0"), val = tensor<int32, [2]>([1, 1])];
            tensor<int32, []> functional_1_MobileNetV3Small_1_expanded_conv_3_squeeze_excite_conv_1_2_convolutionx_groups_0 = const()[name = tensor<string, []>("functional_1_MobileNetV3Small_1_expanded_conv_3_squeeze_excite_conv_1_2_convolutionx_groups_0"), val = tensor<int32, []>(1)];
            tensor<int32, [4]> functional_1_MobileNetV3Small_1_expanded_conv_3_squeeze_excite_conv_1_2_convolutionx_pad_0 = const()[name = tensor<string, []>("functional_1_MobileNetV3Small_1_expanded_conv_3_squeeze_excite_conv_1_2_convolutionx_pad_0"), val = tensor<int32, [4]>([0, 0, 0, 0])];
            tensor<fp16, [96, 24, 1, 1]> transpose_28_to_fp16 = const()[name = tensor<string, []>("transpose_28_to_fp16"), val = tensor<fp16, [96, 24, 1, 1]>(BLOBFILE(path = tensor<string, []>("@model_path/weights/weight.bin"), offset = tensor<uint64, []>(36800)))];
            tensor<fp16, [96]> const_127_to_fp16 = const()[name = tensor<string, []>("const_127_to_fp16"), val = tensor<fp16, [96]>(BLOBFILE(path = tensor<string, []>("@model_path/weights/weight.bin"), offset = tensor<uint64, []>(41472)))];
            tensor<fp16, [1, 96, 1, 1]> functional_1_MobileNetV3Small_1_Add_1_cast_fp16 = conv(bias = const_127_to_fp16, dilations = functional_1_MobileNetV3Small_1_expanded_conv_3_squeeze_excite_conv_1_2_convolutionx_dilations_0, groups = functional_1_MobileNetV3Small_1_expanded_conv_3_squeeze_excite_conv_1_2_convolutionx_groups_0, pad = functional_1_MobileNetV3Small_1_expanded_conv_3_squeeze_excite_conv_1_2_convolutionx_pad_0, pad_type = functional_1_MobileNetV3Small_1_expanded_conv_3_squeeze_excite_conv_1_2_convolutionx_pad_type_0, strides = functional_1_MobileNetV3Small_1_expanded_conv_3_squeeze_excite_conv_1_2_convolutionx_strides_0, weight = transpose_28_to_fp16, x = functional_1_MobileNetV3Small_1_expanded_conv_3_squeeze_excite_relu_1_Relu_cast_fp16)[name = tensor<string, []>("functional_1_MobileNetV3Small_1_Add_1_cast_fp16")];
            tensor<fp16, [1, 96, 1, 1]> functional_1_MobileNetV3Small_1_re_lu_6_1_Relu6_cast_fp16 = relu6(x = functional_1_MobileNetV3Small_1_Add_1_cast_fp16)[name = tensor<string, []>("functional_1_MobileNetV3Small_1_re_lu_6_1_Relu6_cast_fp16")];
            tensor<fp16, []> functional_1_MobileNetV3Small_1_Const_3_to_fp16 = const()[name = tensor<string, []>("functional_1_MobileNetV3Small_1_Const_3_to_fp16"), val = tensor<fp16, []>(0x1.554p-3)];
            tensor<fp16, [1, 96, 1, 1]> functional_1_MobileNetV3Small_1_Mul_1_cast_fp16 = mul(x = functional_1_MobileNetV3Small_1_re_lu_6_1_Relu6_cast_fp16, y = functional_1_MobileNetV3Small_1_Const_3_to_fp16)[name = tensor<string, []>("functional_1_MobileNetV3Small_1_Mul_1_cast_fp16")];
            tensor<fp16, [1, 96, 14, 14]> functional_1_MobileNetV3Small_1_expanded_conv_3_squeeze_excite_mul_1_Mul_cast_fp16 = mul(x = functional_1_MobileNetV3Small_1_activation_2_1_mul_cast_fp16, y = functional_1_MobileNetV3Small_1_Mul_1_cast_fp16)[name = tensor<string, []>("functional_1_MobileNetV3Small_1_expanded_conv_3_squeeze_excite_mul_1_Mul_cast_fp16")];
            tensor<string, []> functional_1_MobileNetV3Small_1_expanded_conv_3_project_bn_1_batchnorm_mul_1x_pad_type_0 = const()[name = tensor<string, []>("functional_1_MobileNetV3Small_1_expanded_conv_3_project_bn_1_batchnorm_mul_1x_pad_type_0"), val = tensor<string, []>("same")];
            tensor<int32, [2]> functional_1_MobileNetV3Small_1_expanded_conv_3_project_bn_1_batchnorm_mul_1x_strides_0 = const()[name = tensor<string, []>("functional_1_MobileNetV3Small_1_expanded_conv_3_project_bn_1_batchnorm_mul_1x_strides_0"), val = tensor<int32, [2]>([1, 1])];
            tensor<int32, [2]> functional_1_MobileNetV3Small_1_expanded_conv_3_project_bn_1_batchnorm_mul_1x_dilations_0 = const()[name = tensor<string, []>("functional_1_MobileNetV3Small_1_expanded_conv_3_project_bn_1_batchnorm_mul_1x_dilations_0"), val = tensor<int32, [2]>([1, 1])];
            tensor<int32, []> functional_1_MobileNetV3Small_1_expanded_conv_3_project_bn_1_batchnorm_mul_1x_groups_0 = const()[name = tensor<string, []>("functional_1_MobileNetV3Small_1_expanded_conv_3_project_bn_1_batchnorm_mul_1x_groups_0"), val = tensor<int32, []>(1)];
            tensor<int32, [4]> functional_1_MobileNetV3Small_1_expanded_conv_3_project_bn_1_batchnorm_mul_1x_pad_0 = const()[name = tensor<string, []>("functional_1_MobileNetV3Small_1_expanded_conv_3_project_bn_1_batchnorm_mul_1x_pad_0"), val = tensor<int32, [4]>([0, 0, 0, 0])];
            tensor<fp16, [40, 96, 1, 1]> transpose_30_to_fp16 = const()[name = tensor<string, []>("transpose_30_to_fp16"), val = tensor<fp16, [40, 96, 1, 1]>(BLOBFILE(path = tensor<string, []>("@model_path/weights/weight.bin"), offset = tensor<uint64, []>(41728)))];
            tensor<fp16, [40]> const_90_to_fp16 = const()[name = tensor<string, []>("const_90_to_fp16"), val = tensor<fp16, [40]>(BLOBFILE(path = tensor<string, []>("@model_path/weights/weight.bin"), offset = tensor<uint64, []>(49472)))];
            tensor<fp16, [1, 40, 14, 14]> functional_1_MobileNetV3Small_1_expanded_conv_3_project_bn_1_batchnorm_add_1_cast_fp16 = conv(bias = const_90_to_fp16, dilations = functional_1_MobileNetV3Small_1_expanded_conv_3_project_bn_1_batchnorm_mul_1x_dilations_0, groups = functional_1_MobileNetV3Small_1_expanded_conv_3_project_bn_1_batchnorm_mul_1x_groups_0, pad = functional_1_MobileNetV3Small_1_expanded_conv_3_project_bn_1_batchnorm_mul_1x_pad_0, pad_type = functional_1_MobileNetV3Small_1_expanded_conv_3_project_bn_1_batchnorm_mul_1x_pad_type_0, strides = functional_1_MobileNetV3Small_1_expanded_conv_3_project_bn_1_batchnorm_mul_1x_strides_0, weight = transpose_30_to_fp16, x = functional_1_MobileNetV3Small_1_expanded_conv_3_squeeze_excite_mul_1_Mul_cast_fp16)[name = tensor<string, []>("functional_1_MobileNetV3Small_1_expanded_conv_3_project_bn_1_batchnorm_add_1_cast_fp16")];
            tensor<string, []> functional_1_MobileNetV3Small_1_expanded_conv_4_expand_bn_1_batchnorm_mul_1x_pad_type_0 = const()[name = tensor<string, []>("functional_1_MobileNetV3Small_1_expanded_conv_4_expand_bn_1_batchnorm_mul_1x_pad_type_0"), val = tensor<string, []>("same")];
            tensor<int32, [2]> functional_1_MobileNetV3Small_1_expanded_conv_4_expand_bn_1_batchnorm_mul_1x_strides_0 = const()[name = tensor<string, []>("functional_1_MobileNetV3Small_1_expanded_conv_4_expand_bn_1_batchnorm_mul_1x_strides_0"), val = tensor<int32, [2]>([1, 1])];
            tensor<int32, [2]> functional_1_MobileNetV3Small_1_expanded_conv_4_expand_bn_1_batchnorm_mul_1x_dilations_0 = const()[name = tensor<string, []>("functional_1_MobileNetV3Small_1_expanded_conv_4_expand_bn_1_batchnorm_mul_1x_dilations_0"), val = tensor<int32, [2]>([1, 1])];
            tensor<int32, []> functional_1_MobileNetV3Small_1_expanded_conv_4_expand_bn_1_batchnorm_mul_1x_groups_0 = const()[name = tensor<string, []>("functional_1_MobileNetV3Small_1_expanded_conv_4_expand_bn_1_batchnorm_mul_1x_groups_0"), val = tensor<int32, []>(1)];
            tensor<int32, [4]> functional_1_MobileNetV3Small_1_expanded_conv_4_expand_bn_1_batchnorm_mul_1x_pad_0 = const()[name = tensor<string, []>("functional_1_MobileNetV3Small_1_expanded_conv_4_expand_bn_1_batchnorm_mul_1x_pad_0"), val = tensor<int32, [4]>([0, 0, 0, 0])];
            tensor<fp16, [240, 40, 1, 1]> transpose_32_to_fp16 = const()[name = tensor<string, []>("transpose_32_to_fp16"), val = tensor<fp16, [240, 40, 1, 1]>(BLOBFILE(path = tensor<string, []>("@model_path/weights/weight.bin"), offset = tensor<uint64, []>(49664)))];
            tensor<fp16, [240]> const_91_to_fp16 = const()[name = tensor<string, []>("const_91_to_fp16"), val = tensor<fp16, [240]>(BLOBFILE(path = tensor<string, []>("@model_path/weights/weight.bin"), offset = tensor<uint64, []>(68928)))];
            tensor<fp16, [1, 240, 14, 14]> functional_1_MobileNetV3Small_1_expanded_conv_4_expand_bn_1_batchnorm_add_1_cast_fp16 = conv(bias = const_91_to_fp16, dilations = functional_1_MobileNetV3Small_1_expanded_conv_4_expand_bn_1_batchnorm_mul_1x_dilations_0, groups = functional_1_MobileNetV3Small_1_expanded_conv_4_expand_bn_1_batchnorm_mul_1x_groups_0, pad = functional_1_MobileNetV3Small_1_expanded_conv_4_expand_bn_1_batchnorm_mul_1x_pad_0, pad_type = functional_1_MobileNetV3Small_1_expanded_conv_4_expand_bn_1_batchnorm_mul_1x_pad_type_0, strides = functional_1_MobileNetV3Small_1_expanded_conv_4_expand_bn_1_batchnorm_mul_1x_strides_0, weight = transpose_32_to_fp16, x = functional_1_MobileNetV3Small_1_expanded_conv_3_project_bn_1_batchnorm_add_1_cast_fp16)[name = tensor<string, []>("functional_1_MobileNetV3Small_1_expanded_conv_4_expand_bn_1_batchnorm_add_1_cast_fp16")];
            tensor<fp16, []> functional_1_MobileNetV3Small_1_activation_3_1_Const_to_fp16 = const()[name = tensor<string, []>("functional_1_MobileNetV3Small_1_activation_3_1_Const_to_fp16"), val = tensor<fp16, []>(0x1.8p+1)];
            tensor<fp16, [1, 240, 14, 14]> functional_1_MobileNetV3Small_1_activation_3_1_add_cast_fp16 = add(x = functional_1_MobileNetV3Small_1_expanded_conv_4_expand_bn_1_batchnorm_add_1_cast_fp16, y = functional_1_MobileNetV3Small_1_activation_3_1_Const_to_fp16)[name = tensor<string, []>("functional_1_MobileNetV3Small_1_activation_3_1_add_cast_fp16")];
            tensor<fp16, [1, 240, 14, 14]> functional_1_MobileNetV3Small_1_activation_3_1_Relu6_cast_fp16 = relu6(x = functional_1_MobileNetV3Small_1_activation_3_1_add_cast_fp16)[name = tensor<string, []>("functional_1_MobileNetV3Small_1_activation_3_1_Relu6_cast_fp16")];
            tensor<fp16, []> ConstantFolding_functional_1_MobileNetV3Small_1_activation_3_1_truediv_recip_to_fp16 = const()[name = tensor<string, []>("ConstantFolding_functional_1_MobileNetV3Small_1_activation_3_1_truediv_recip_to_fp16"), val = tensor<fp16, []>(0x1.554p-3)];
            tensor<fp16, [1, 240, 14, 14]> functional_1_MobileNetV3Small_1_activation_3_1_truediv_cast_fp16 = mul(x = functional_1_MobileNetV3Small_1_activation_3_1_Relu6_cast_fp16, y = ConstantFolding_functional_1_MobileNetV3Small_1_activation_3_1_truediv_recip_to_fp16)[name = tensor<string, []>("functional_1_MobileNetV3Small_1_activation_3_1_truediv_cast_fp16")];
            tensor<fp16, [1, 240, 14, 14]> functional_1_MobileNetV3Small_1_activation_3_1_mul_cast_fp16 = mul(x = functional_1_MobileNetV3Small_1_expanded_conv_4_expand_bn_1_batchnorm_add_1_cast_fp16, y = functional_1_MobileNetV3Small_1_activation_3_1_truediv_cast_fp16)[name = tensor<string, []>("functional_1_MobileNetV3Small_1_activation_3_1_mul_cast_fp16")];
            tensor<string, []> functional_1_MobileNetV3Small_1_expanded_conv_4_depthwise_1_depthwisex_pad_type_0 = const()[name = tensor<string, []>("functional_1_MobileNetV3Small_1_expanded_conv_4_depthwise_1_depthwisex_pad_type_0"), val = tensor<string, []>("same")];
            tensor<int32, [2]> functional_1_MobileNetV3Small_1_expanded_conv_4_depthwise_1_depthwisex_strides_0 = const()[name = tensor<string, []>("functional_1_MobileNetV3Small_1_expanded_conv_4_depthwise_1_depthwisex_strides_0"), val = tensor<int32, [2]>([1, 1])];
            tensor<int32, [2]> functional_1_MobileNetV3Small_1_expanded_conv_4_depthwise_1_depthwisex_dilations_0 = const()[name = tensor<string, []>("functional_1_MobileNetV3Small_1_expanded_conv_4_depthwise_1_depthwisex_dilations_0"), val = tensor<int32, [2]>([1, 1])];
            tensor<int32, []> functional_1_MobileNetV3Small_1_expanded_conv_4_depthwise_1_depthwisex_groups_0 = const()[name = tensor<string, []>("functional_1_MobileNetV3Small_1_expanded_conv_4_depthwise_1_depthwisex_groups_0"), val = tensor<int32, []>(240)];
            tensor<int32, [4]> functional_1_MobileNetV3Small_1_expanded_conv_4_depthwise_1_depthwisex_pad_0 = const()[name = tensor<string, []>("functional_1_MobileNetV3Small_1_expanded_conv_4_depthwise_1_depthwisex_pad_0"), val = tensor<int32, [4]>([0, 0, 0, 0])];
            tensor<fp16, [240, 1, 5, 5]> functional_1_MobileNetV3Small_1_expanded_conv_4_depthwise_bn_1_batchnorm_mul_1_weight_0_to_fp16 = const()[name = tensor<string, []>("functional_1_MobileNetV3Small_1_expanded_conv_4_depthwise_bn_1_batchnorm_mul_1_weight_0_to_fp16"), val = tensor<fp16, [240, 1, 5, 5]>(BLOBFILE(path = tensor<string, []>("@model_path/weights/weight.bin"), offset = tensor<uint64, []>(69504)))];
            tensor<fp16, [240]> const_92_to_fp16 = const()[name = tensor<string, []>("const_92_to_fp16"), val = tensor<fp16, [240]>(BLOBFILE(path = tensor<string, []>("@model_path/weights/weight.bin"), offset = tensor<uint64, []>(81600)))];
            tensor<fp16, [1, 240, 14, 14]> functional_1_MobileNetV3Small_1_expanded_conv_4_depthwise_bn_1_batchnorm_add_1_cast_fp16 = conv(bias = const_92_to_fp16, dilations = functional_1_MobileNetV3Small_1_expanded_conv_4_depthwise_1_depthwisex_dilations_0, groups = functional_1_MobileNetV3Small_1_expanded_conv_4_depthwise_1_depthwisex_groups_0, pad = functional_1_MobileNetV3Small_1_expanded_conv_4_depthwise_1_depthwisex_pad_0, pad_type = functional_1_MobileNetV3Small_1_expanded_conv_4_depthwise_1_depthwisex_pad_type_0, strides = functional_1_MobileNetV3Small_1_expanded_conv_4_depthwise_1_depthwisex_strides_0, weight = functional_1_MobileNetV3Small_1_expanded_conv_4_depthwise_bn_1_batchnorm_mul_1_weight_0_to_fp16, x = functional_1_MobileNetV3Small_1_activation_3_1_mul_cast_fp16)[name = tensor<string, []>("functional_1_MobileNetV3Small_1_expanded_conv_4_depthwise_bn_1_batchnorm_add_1_cast_fp16")];
            tensor<fp16, []> functional_1_MobileNetV3Small_1_activation_4_1_Const_to_fp16 = const()[name = tensor<string, []>("functional_1_MobileNetV3Small_1_activation_4_1_Const_to_fp16"), val = tensor<fp16, []>(0x1.8p+1)];
            tensor<fp16, [1, 240, 14, 14]> functional_1_MobileNetV3Small_1_activation_4_1_add_cast_fp16 = add(x = functional_1_MobileNetV3Small_1_expanded_conv_4_depthwise_bn_1_batchnorm_add_1_cast_fp16, y = functional_1_MobileNetV3Small_1_activation_4_1_Const_to_fp16)[name = tensor<string, []>("functional_1_MobileNetV3Small_1_activation_4_1_add_cast_fp16")];
            tensor<fp16, [1, 240, 14, 14]> functional_1_MobileNetV3Small_1_activation_4_1_Relu6_cast_fp16 = relu6(x = functional_1_MobileNetV3Small_1_activation_4_1_add_cast_fp16)[name = tensor<string, []>("functional_1_MobileNetV3Small_1_activation_4_1_Relu6_cast_fp16")];
            tensor<fp16, []> ConstantFolding_functional_1_MobileNetV3Small_1_activation_4_1_truediv_recip_to_fp16 = const()[name = tensor<string, []>("ConstantFolding_functional_1_MobileNetV3Small_1_activation_4_1_truediv_recip_to_fp16"), val = tensor<fp16, []>(0x1.554p-3)];
            tensor<fp16, [1, 240, 14, 14]> functional_1_MobileNetV3Small_1_activation_4_1_truediv_cast_fp16 = mul(x = functional_1_MobileNetV3Small_1_activation_4_1_Relu6_cast_fp16, y = ConstantFolding_functional_1_MobileNetV3Small_1_activation_4_1_truediv_recip_to_fp16)[name = tensor<string, []>("functional_1_MobileNetV3Small_1_activation_4_1_truediv_cast_fp16")];
            tensor<fp16, [1, 240, 14, 14]> functional_1_MobileNetV3Small_1_activation_4_1_mul_cast_fp16 = mul(x = functional_1_MobileNetV3Small_1_expanded_conv_4_depthwise_bn_1_batchnorm_add_1_cast_fp16, y = functional_1_MobileNetV3Small_1_activation_4_1_truediv_cast_fp16)[name = tensor<string, []>("functional_1_MobileNetV3Small_1_activation_4_1_mul_cast_fp16")];
            tensor<bool, []> functional_1_MobileNetV3Small_1_expanded_conv_4_squeeze_excite_avg_pool_1_Mean_keep_dims_0 = const()[name = tensor<string, []>("functional_1_MobileNetV3Small_1_expanded_conv_4_squeeze_excite_avg_pool_1_Mean_keep_dims_0"), val = tensor<bool, []>(true)];
            tensor<int32, [2]> const_29 = const()[name = tensor<string, []>("const_29"), val = tensor<int32, [2]>([2, 3])];
            tensor<fp16, [1, 240, 1, 1]> functional_1_MobileNetV3Small_1_expanded_conv_4_squeeze_excite_avg_pool_1_Mean_cast_fp16 = reduce_mean(axes = const_29, keep_dims = functional_1_MobileNetV3Small_1_expanded_conv_4_squeeze_excite_avg_pool_1_Mean_keep_dims_0, x = functional_1_MobileNetV3Small_1_activation_4_1_mul_cast_fp16)[name = tensor<string, []>("functional_1_MobileNetV3Small_1_expanded_conv_4_squeeze_excite_avg_pool_1_Mean_cast_fp16")];
            tensor<string, []> functional_1_MobileNetV3Small_1_expanded_conv_4_squeeze_excite_conv_1_convolutionx_pad_type_0 = const()[name = tensor<string, []>("functional_1_MobileNetV3Small_1_expanded_conv_4_squeeze_excite_conv_1_convolutionx_pad_type_0"), val = tensor<string, []>("same")];
            tensor<int32, [2]> functional_1_MobileNetV3Small_1_expanded_conv_4_squeeze_excite_conv_1_convolutionx_strides_0 = const()[name = tensor<string, []>("functional_1_MobileNetV3Small_1_expanded_conv_4_squeeze_excite_conv_1_convolutionx_strides_0"), val = tensor<int32, [2]>([1, 1])];
            tensor<int32, [2]> functional_1_MobileNetV3Small_1_expanded_conv_4_squeeze_excite_conv_1_convolutionx_dilations_0 = const()[name = tensor<string, []>("functional_1_MobileNetV3Small_1_expanded_conv_4_squeeze_excite_conv_1_convolutionx_dilations_0"), val = tensor<int32, [2]>([1, 1])];
            tensor<int32, []> functional_1_MobileNetV3Small_1_expanded_conv_4_squeeze_excite_conv_1_convolutionx_groups_0 = const()[name = tensor<string, []>("functional_1_MobileNetV3Small_1_expanded_conv_4_squeeze_excite_conv_1_convolutionx_groups_0"), val = tensor<int32, []>(1)];
            tensor<int32, [4]> functional_1_MobileNetV3Small_1_expanded_conv_4_squeeze_excite_conv_1_convolutionx_pad_0 = const()[name = tensor<string, []>("functional_1_MobileNetV3Small_1_expanded_conv_4_squeeze_excite_conv_1_convolutionx_pad_0"), val = tensor<int32, [4]>([0, 0, 0, 0])];
            tensor<fp16, [64, 240, 1, 1]> transpose_36_to_fp16 = const()[name = tensor<string, []>("transpose_36_to_fp16"), val = tensor<fp16, [64, 240, 1, 1]>(BLOBFILE(path = tensor<string, []>("@model_path/weights/weight.bin"), offset = tensor<uint64, []>(82176)))];
            tensor<fp16, [64]> const_93_to_fp16 = const()[name = tensor<string, []>("const_93_to_fp16"), val = tensor<fp16, [64]>(BLOBFILE(path = tensor<string, []>("@model_path/weights/weight.bin"), offset = tensor<uint64, []>(112960)))];
            tensor<fp16, [1, 64, 1, 1]> functional_1_MobileNetV3Small_1_expanded_conv_4_squeeze_excite_conv_1_BiasAdd_cast_fp16 = conv(bias = const_93_to_fp16, dilations = functional_1_MobileNetV3Small_1_expanded_conv_4_squeeze_excite_conv_1_convolutionx_dilations_0, groups = functional_1_MobileNetV3Small_1_expanded_conv_4_squeeze_excite_conv_1_convolutionx_groups_0, pad = functional_1_MobileNetV3Small_1_expanded_conv_4_squeeze_excite_conv_1_convolutionx_pad_0, pad_type = functional_1_MobileNetV3Small_1_expanded_conv_4_squeeze_excite_conv_1_convolutionx_pad_type_0, strides = functional_1_MobileNetV3Small_1_expanded_conv_4_squeeze_excite_conv_1_convolutionx_strides_0, weight = transpose_36_to_fp16, x = functional_1_MobileNetV3Small_1_expanded_conv_4_squeeze_excite_avg_pool_1_Mean_cast_fp16)[name = tensor<string, []>("functional_1_MobileNetV3Small_1_expanded_conv_4_squeeze_excite_conv_1_BiasAdd_cast_fp16")];
            tensor<fp16, [1, 64, 1, 1]> functional_1_MobileNetV3Small_1_expanded_conv_4_squeeze_excite_relu_1_Relu_cast_fp16 = relu(x = functional_1_MobileNetV3Small_1_expanded_conv_4_squeeze_excite_conv_1_BiasAdd_cast_fp16)[name = tensor<string, []>("functional_1_MobileNetV3Small_1_expanded_conv_4_squeeze_excite_relu_1_Relu_cast_fp16")];
            tensor<string, []> functional_1_MobileNetV3Small_1_expanded_conv_4_squeeze_excite_conv_1_2_convolutionx_pad_type_0 = const()[name = tensor<string, []>("functional_1_MobileNetV3Small_1_expanded_conv_4_squeeze_excite_conv_1_2_convolutionx_pad_type_0"), val = tensor<string, []>("same")];
            tensor<int32, [2]> functional_1_MobileNetV3Small_1_expanded_conv_4_squeeze_excite_conv_1_2_convolutionx_strides_0 = const()[name = tensor<string, []>("functional_1_MobileNetV3Small_1_expanded_conv_4_squeeze_excite_conv_1_2_convolutionx_strides_0"), val = tensor<int32, [2]>([1, 1])];
            tensor<int32, [2]> functional_1_MobileNetV3Small_1_expanded_conv_4_squeeze_excite_conv_1_2_convolutionx_dilations_0 = const()[name = tensor<string, []>("functional_1_MobileNetV3Small_1_expanded_conv_4_squeeze_excite_conv_1_2_convolutionx_dilations_0"), val = tensor<int32, [2]>([1, 1])];
            tensor<int32, []> functional_1_MobileNetV3Small_1_expanded_conv_4_squeeze_excite_conv_1_2_convolutionx_groups_0 = const()[name = tensor<string, []>("functional_1_MobileNetV3Small_1_expanded_conv_4_squeeze_excite_conv_1_2_convolutionx_groups_0"), val = tensor<int32, []>(1)];
            tensor<int32, [4]> functional_1_MobileNetV3Small_1_expanded_conv_4_squeeze_excite_conv_1_2_convolutionx_pad_0 = const()[name = tensor<string, []>("functional_1_MobileNetV3Small_1_expanded_conv_4_squeeze_excite_conv_1_2_convolutionx_pad_0"), val = tensor<int32, [4]>([0, 0, 0, 0])];
            tensor<fp16, [240, 64, 1, 1]> transpose_38_to_fp16 = const()[name = tensor<string, []>("transpose_38_to_fp16"), val = tensor<fp16, [240, 64, 1, 1]>(BLOBFILE(path = tensor<string, []>("@model_path/weights/weight.bin"), offset = tensor<uint64, []>(113152)))];
            tensor<fp16, [240]> const_128_to_fp16 = const()[name = tensor<string, []>("const_128_to_fp16"), val = tensor<fp16, [240]>(BLOBFILE(path = tensor<string, []>("@model_path/weights/weight.bin"), offset = tensor<uint64, []>(143936)))];
            tensor<fp16, [1, 240, 1, 1]> functional_1_MobileNetV3Small_1_Add_2_cast_fp16 = conv(bias = const_128_to_fp16, dilations = functional_1_MobileNetV3Small_1_expanded_conv_4_squeeze_excite_conv_1_2_convolutionx_dilations_0, groups = functional_1_MobileNetV3Small_1_expanded_conv_4_squeeze_excite_conv_1_2_convolutionx_groups_0, pad = functional_1_MobileNetV3Small_1_expanded_conv_4_squeeze_excite_conv_1_2_convolutionx_pad_0, pad_type = functional_1_MobileNetV3Small_1_expanded_conv_4_squeeze_excite_conv_1_2_convolutionx_pad_type_0, strides = functional_1_MobileNetV3Small_1_expanded_conv_4_squeeze_excite_conv_1_2_convolutionx_strides_0, weight = transpose_38_to_fp16, x = functional_1_MobileNetV3Small_1_expanded_conv_4_squeeze_excite_relu_1_Relu_cast_fp16)[name = tensor<string, []>("functional_1_MobileNetV3Small_1_Add_2_cast_fp16")];
            tensor<fp16, [1, 240, 1, 1]> functional_1_MobileNetV3Small_1_re_lu_7_1_Relu6_cast_fp16 = relu6(x = functional_1_MobileNetV3Small_1_Add_2_cast_fp16)[name = tensor<string, []>("functional_1_MobileNetV3Small_1_re_lu_7_1_Relu6_cast_fp16")];
            tensor<fp16, []> functional_1_MobileNetV3Small_1_Const_5_to_fp16 = const()[name = tensor<string, []>("functional_1_MobileNetV3Small_1_Const_5_to_fp16"), val = tensor<fp16, []>(0x1.554p-3)];
            tensor<fp16, [1, 240, 1, 1]> functional_1_MobileNetV3Small_1_Mul_2_cast_fp16 = mul(x = functional_1_MobileNetV3Small_1_re_lu_7_1_Relu6_cast_fp16, y = functional_1_MobileNetV3Small_1_Const_5_to_fp16)[name = tensor<string, []>("functional_1_MobileNetV3Small_1_Mul_2_cast_fp16")];
            tensor<fp16, [1, 240, 14, 14]> functional_1_MobileNetV3Small_1_expanded_conv_4_squeeze_excite_mul_1_Mul_cast_fp16 = mul(x = functional_1_MobileNetV3Small_1_activation_4_1_mul_cast_fp16, y = functional_1_MobileNetV3Small_1_Mul_2_cast_fp16)[name = tensor<string, []>("functional_1_MobileNetV3Small_1_expanded_conv_4_squeeze_excite_mul_1_Mul_cast_fp16")];
            tensor<string, []> functional_1_MobileNetV3Small_1_expanded_conv_4_project_bn_1_batchnorm_mul_1x_pad_type_0 = const()[name = tensor<string, []>("functional_1_MobileNetV3Small_1_expanded_conv_4_project_bn_1_batchnorm_mul_1x_pad_type_0"), val = tensor<string, []>("same")];
            tensor<int32, [2]> functional_1_MobileNetV3Small_1_expanded_conv_4_project_bn_1_batchnorm_mul_1x_strides_0 = const()[name = tensor<string, []>("functional_1_MobileNetV3Small_1_expanded_conv_4_project_bn_1_batchnorm_mul_1x_strides_0"), val = tensor<int32, [2]>([1, 1])];
            tensor<int32, [2]> functional_1_MobileNetV3Small_1_expanded_conv_4_project_bn_1_batchnorm_mul_1x_dilations_0 = const()[name = tensor<string, []>("functional_1_MobileNetV3Small_1_expanded_conv_4_project_bn_1_batchnorm_mul_1x_dilations_0"), val = tensor<int32, [2]>([1, 1])];
            tensor<int32, []> functional_1_MobileNetV3Small_1_expanded_conv_4_project_bn_1_batchnorm_mul_1x_groups_0 = const()[name = tensor<string, []>("functional_1_MobileNetV3Small_1_expanded_conv_4_project_bn_1_batchnorm_mul_1x_groups_0"), val = tensor<int32, []>(1)];
            tensor<int32, [4]> functional_1_MobileNetV3Small_1_expanded_conv_4_project_bn_1_batchnorm_mul_1x_pad_0 = const()[name = tensor<string, []>("functional_1_MobileNetV3Small_1_expanded_conv_4_project_bn_1_batchnorm_mul_1x_pad_0"), val = tensor<int32, [4]>([0, 0, 0, 0])];
            tensor<fp16, [40, 240, 1, 1]> transpose_40_to_fp16 = const()[name = tensor<string, []>("transpose_40_to_fp16"), val = tensor<fp16, [40, 240, 1, 1]>(BLOBFILE(path = tensor<string, []>("@model_path/weights/weight.bin"), offset = tensor<uint64, []>(144512)))];
            tensor<fp16, [40]> const_95_to_fp16 = const()[name = tensor<string, []>("const_95_to_fp16"), val = tensor<fp16, [40]>(BLOBFILE(path = tensor<string, []>("@model_path/weights/weight.bin"), offset = tensor<uint64, []>(163776)))];
            tensor<fp16, [1, 40, 14, 14]> functional_1_MobileNetV3Small_1_expanded_conv_4_project_bn_1_batchnorm_add_1_cast_fp16 = conv(bias = const_95_to_fp16, dilations = functional_1_MobileNetV3Small_1_expanded_conv_4_project_bn_1_batchnorm_mul_1x_dilations_0, groups = functional_1_MobileNetV3Small_1_expanded_conv_4_project_bn_1_batchnorm_mul_1x_groups_0, pad = functional_1_MobileNetV3Small_1_expanded_conv_4_project_bn_1_batchnorm_mul_1x_pad_0, pad_type = functional_1_MobileNetV3Small_1_expanded_conv_4_project_bn_1_batchnorm_mul_1x_pad_type_0, strides = functional_1_MobileNetV3Small_1_expanded_conv_4_project_bn_1_batchnorm_mul_1x_strides_0, weight = transpose_40_to_fp16, x = functional_1_MobileNetV3Small_1_expanded_conv_4_squeeze_excite_mul_1_Mul_cast_fp16)[name = tensor<string, []>("functional_1_MobileNetV3Small_1_expanded_conv_4_project_bn_1_batchnorm_add_1_cast_fp16")];
            tensor<fp16, [1, 40, 14, 14]> functional_1_MobileNetV3Small_1_expanded_conv_4_add_1_Add_cast_fp16 = add(x = functional_1_MobileNetV3Small_1_expanded_conv_3_project_bn_1_batchnorm_add_1_cast_fp16, y = functional_1_MobileNetV3Small_1_expanded_conv_4_project_bn_1_batchnorm_add_1_cast_fp16)[name = tensor<string, []>("functional_1_MobileNetV3Small_1_expanded_conv_4_add_1_Add_cast_fp16")];
            tensor<string, []> functional_1_MobileNetV3Small_1_expanded_conv_5_expand_bn_1_batchnorm_mul_1x_pad_type_0 = const()[name = tensor<string, []>("functional_1_MobileNetV3Small_1_expanded_conv_5_expand_bn_1_batchnorm_mul_1x_pad_type_0"), val = tensor<string, []>("same")];
            tensor<int32, [2]> functional_1_MobileNetV3Small_1_expanded_conv_5_expand_bn_1_batchnorm_mul_1x_strides_0 = const()[name = tensor<string, []>("functional_1_MobileNetV3Small_1_expanded_conv_5_expand_bn_1_batchnorm_mul_1x_strides_0"), val = tensor<int32, [2]>([1, 1])];
            tensor<int32, [2]> functional_1_MobileNetV3Small_1_expanded_conv_5_expand_bn_1_batchnorm_mul_1x_dilations_0 = const()[name = tensor<string, []>("functional_1_MobileNetV3Small_1_expanded_conv_5_expand_bn_1_batchnorm_mul_1x_dilations_0"), val = tensor<int32, [2]>([1, 1])];
            tensor<int32, []> functional_1_MobileNetV3Small_1_expanded_conv_5_expand_bn_1_batchnorm_mul_1x_groups_0 = const()[name = tensor<string, []>("functional_1_MobileNetV3Small_1_expanded_conv_5_expand_bn_1_batchnorm_mul_1x_groups_0"), val = tensor<int32, []>(1)];
            tensor<int32, [4]> functional_1_MobileNetV3Small_1_expanded_conv_5_expand_bn_1_batchnorm_mul_1x_pad_0 = const()[name = tensor<string, []>("functional_1_MobileNetV3Small_1_expanded_conv_5_expand_bn_1_batchnorm_mul_1x_pad_0"), val = tensor<int32, [4]>([0, 0, 0, 0])];
            tensor<fp16, [240, 40, 1, 1]> transpose_42_to_fp16 = const()[name = tensor<string, []>("transpose_42_to_fp16"), val = tensor<fp16, [240, 40, 1, 1]>(BLOBFILE(path = tensor<string, []>("@model_path/weights/weight.bin"), offset = tensor<uint64, []>(163968)))];
            tensor<fp16, [240]> const_96_to_fp16 = const()[name = tensor<string, []>("const_96_to_fp16"), val = tensor<fp16, [240]>(BLOBFILE(path = tensor<string, []>("@model_path/weights/weight.bin"), offset = tensor<uint64, []>(183232)))];
            tensor<fp16, [1, 240, 14, 14]> functional_1_MobileNetV3Small_1_expanded_conv_5_expand_bn_1_batchnorm_add_1_cast_fp16 = conv(bias = const_96_to_fp16, dilations = functional_1_MobileNetV3Small_1_expanded_conv_5_expand_bn_1_batchnorm_mul_1x_dilations_0, groups = functional_1_MobileNetV3Small_1_expanded_conv_5_expand_bn_1_batchnorm_mul_1x_groups_0, pad = functional_1_MobileNetV3Small_1_expanded_conv_5_expand_bn_1_batchnorm_mul_1x_pad_0, pad_type = functional_1_MobileNetV3Small_1_expanded_conv_5_expand_bn_1_batchnorm_mul_1x_pad_type_0, strides = functional_1_MobileNetV3Small_1_expanded_conv_5_expand_bn_1_batchnorm_mul_1x_strides_0, weight = transpose_42_to_fp16, x = functional_1_MobileNetV3Small_1_expanded_conv_4_add_1_Add_cast_fp16)[name = tensor<string, []>("functional_1_MobileNetV3Small_1_expanded_conv_5_expand_bn_1_batchnorm_add_1_cast_fp16")];
            tensor<fp16, []> functional_1_MobileNetV3Small_1_activation_5_1_Const_to_fp16 = const()[name = tensor<string, []>("functional_1_MobileNetV3Small_1_activation_5_1_Const_to_fp16"), val = tensor<fp16, []>(0x1.8p+1)];
            tensor<fp16, [1, 240, 14, 14]> functional_1_MobileNetV3Small_1_activation_5_1_add_cast_fp16 = add(x = functional_1_MobileNetV3Small_1_expanded_conv_5_expand_bn_1_batchnorm_add_1_cast_fp16, y = functional_1_MobileNetV3Small_1_activation_5_1_Const_to_fp16)[name = tensor<string, []>("functional_1_MobileNetV3Small_1_activation_5_1_add_cast_fp16")];
            tensor<fp16, [1, 240, 14, 14]> functional_1_MobileNetV3Small_1_activation_5_1_Relu6_cast_fp16 = relu6(x = functional_1_MobileNetV3Small_1_activation_5_1_add_cast_fp16)[name = tensor<string, []>("functional_1_MobileNetV3Small_1_activation_5_1_Relu6_cast_fp16")];
            tensor<fp16, []> ConstantFolding_functional_1_MobileNetV3Small_1_activation_5_1_truediv_recip_to_fp16 = const()[name = tensor<string, []>("ConstantFolding_functional_1_MobileNetV3Small_1_activation_5_1_truediv_recip_to_fp16"), val = tensor<fp16, []>(0x1.554p-3)];
            tensor<fp16, [1, 240, 14, 14]> functional_1_MobileNetV3Small_1_activation_5_1_truediv_cast_fp16 = mul(x = functional_1_MobileNetV3Small_1_activation_5_1_Relu6_cast_fp16, y = ConstantFolding_functional_1_MobileNetV3Small_1_activation_5_1_truediv_recip_to_fp16)[name = tensor<string, []>("functional_1_MobileNetV3Small_1_activation_5_1_truediv_cast_fp16")];
            tensor<fp16, [1, 240, 14, 14]> functional_1_MobileNetV3Small_1_activation_5_1_mul_cast_fp16 = mul(x = functional_1_MobileNetV3Small_1_expanded_conv_5_expand_bn_1_batchnorm_add_1_cast_fp16, y = functional_1_MobileNetV3Small_1_activation_5_1_truediv_cast_fp16)[name = tensor<string, []>("functional_1_MobileNetV3Small_1_activation_5_1_mul_cast_fp16")];
            tensor<string, []> functional_1_MobileNetV3Small_1_expanded_conv_5_depthwise_1_depthwisex_pad_type_0 = const()[name = tensor<string, []>("functional_1_MobileNetV3Small_1_expanded_conv_5_depthwise_1_depthwisex_pad_type_0"), val = tensor<string, []>("same")];
            tensor<int32, [2]> functional_1_MobileNetV3Small_1_expanded_conv_5_depthwise_1_depthwisex_strides_0 = const()[name = tensor<string, []>("functional_1_MobileNetV3Small_1_expanded_conv_5_depthwise_1_depthwisex_strides_0"), val = tensor<int32, [2]>([1, 1])];
            tensor<int32, [2]> functional_1_MobileNetV3Small_1_expanded_conv_5_depthwise_1_depthwisex_dilations_0 = const()[name = tensor<string, []>("functional_1_MobileNetV3Small_1_expanded_conv_5_depthwise_1_depthwisex_dilations_0"), val = tensor<int32, [2]>([1, 1])];
            tensor<int32, []> functional_1_MobileNetV3Small_1_expanded_conv_5_depthwise_1_depthwisex_groups_0 = const()[name = tensor<string, []>("functional_1_MobileNetV3Small_1_expanded_conv_5_depthwise_1_depthwisex_groups_0"), val = tensor<int32, []>(240)];
            tensor<int32, [4]> functional_1_MobileNetV3Small_1_expanded_conv_5_depthwise_1_depthwisex_pad_0 = const()[name = tensor<string, []>("functional_1_MobileNetV3Small_1_expanded_conv_5_depthwise_1_depthwisex_pad_0"), val = tensor<int32, [4]>([0, 0, 0, 0])];
            tensor<fp16, [240, 1, 5, 5]> functional_1_MobileNetV3Small_1_expanded_conv_5_depthwise_bn_1_batchnorm_mul_1_weight_0_to_fp16 = const()[name = tensor<string, []>("functional_1_MobileNetV3Small_1_expanded_conv_5_depthwise_bn_1_batchnorm_mul_1_weight_0_to_fp16"), val = tensor<fp16, [240, 1, 5, 5]>(BLOBFILE(path = tensor<string, []>("@model_path/weights/weight.bin"), offset = tensor<uint64, []>(183808)))];
            tensor<fp16, [240]> const_97_to_fp16 = const()[name = tensor<string, []>("const_97_to_fp16"), val = tensor<fp16, [240]>(BLOBFILE(path = tensor<string, []>("@model_path/weights/weight.bin"), offset = tensor<uint64, []>(195904)))];
            tensor<fp16, [1, 240, 14, 14]> functional_1_MobileNetV3Small_1_expanded_conv_5_depthwise_bn_1_batchnorm_add_1_cast_fp16 = conv(bias = const_97_to_fp16, dilations = functional_1_MobileNetV3Small_1_expanded_conv_5_depthwise_1_depthwisex_dilations_0, groups = functional_1_MobileNetV3Small_1_expanded_conv_5_depthwise_1_depthwisex_groups_0, pad = functional_1_MobileNetV3Small_1_expanded_conv_5_depthwise_1_depthwisex_pad_0, pad_type = functional_1_MobileNetV3Small_1_expanded_conv_5_depthwise_1_depthwisex_pad_type_0, strides = functional_1_MobileNetV3Small_1_expanded_conv_5_depthwise_1_depthwisex_strides_0, weight = functional_1_MobileNetV3Small_1_expanded_conv_5_depthwise_bn_1_batchnorm_mul_1_weight_0_to_fp16, x = functional_1_MobileNetV3Small_1_activation_5_1_mul_cast_fp16)[name = tensor<string, []>("functional_1_MobileNetV3Small_1_expanded_conv_5_depthwise_bn_1_batchnorm_add_1_cast_fp16")];
            tensor<fp16, []> functional_1_MobileNetV3Small_1_activation_6_1_Const_to_fp16 = const()[name = tensor<string, []>("functional_1_MobileNetV3Small_1_activation_6_1_Const_to_fp16"), val = tensor<fp16, []>(0x1.8p+1)];
            tensor<fp16, [1, 240, 14, 14]> functional_1_MobileNetV3Small_1_activation_6_1_add_cast_fp16 = add(x = functional_1_MobileNetV3Small_1_expanded_conv_5_depthwise_bn_1_batchnorm_add_1_cast_fp16, y = functional_1_MobileNetV3Small_1_activation_6_1_Const_to_fp16)[name = tensor<string, []>("functional_1_MobileNetV3Small_1_activation_6_1_add_cast_fp16")];
            tensor<fp16, [1, 240, 14, 14]> functional_1_MobileNetV3Small_1_activation_6_1_Relu6_cast_fp16 = relu6(x = functional_1_MobileNetV3Small_1_activation_6_1_add_cast_fp16)[name = tensor<string, []>("functional_1_MobileNetV3Small_1_activation_6_1_Relu6_cast_fp16")];
            tensor<fp16, []> ConstantFolding_functional_1_MobileNetV3Small_1_activation_6_1_truediv_recip_to_fp16 = const()[name = tensor<string, []>("ConstantFolding_functional_1_MobileNetV3Small_1_activation_6_1_truediv_recip_to_fp16"), val = tensor<fp16, []>(0x1.554p-3)];
            tensor<fp16, [1, 240, 14, 14]> functional_1_MobileNetV3Small_1_activation_6_1_truediv_cast_fp16 = mul(x = functional_1_MobileNetV3Small_1_activation_6_1_Relu6_cast_fp16, y = ConstantFolding_functional_1_MobileNetV3Small_1_activation_6_1_truediv_recip_to_fp16)[name = tensor<string, []>("functional_1_MobileNetV3Small_1_activation_6_1_truediv_cast_fp16")];
            tensor<fp16, [1, 240, 14, 14]> functional_1_MobileNetV3Small_1_activation_6_1_mul_cast_fp16 = mul(x = functional_1_MobileNetV3Small_1_expanded_conv_5_depthwise_bn_1_batchnorm_add_1_cast_fp16, y = functional_1_MobileNetV3Small_1_activation_6_1_truediv_cast_fp16)[name = tensor<string, []>("functional_1_MobileNetV3Small_1_activation_6_1_mul_cast_fp16")];
            tensor<bool, []> functional_1_MobileNetV3Small_1_expanded_conv_5_squeeze_excite_avg_pool_1_Mean_keep_dims_0 = const()[name = tensor<string, []>("functional_1_MobileNetV3Small_1_expanded_conv_5_squeeze_excite_avg_pool_1_Mean_keep_dims_0"), val = tensor<bool, []>(true)];
            tensor<int32, [2]> const_36 = const()[name = tensor<string, []>("const_36"), val = tensor<int32, [2]>([2, 3])];
            tensor<fp16, [1, 240, 1, 1]> functional_1_MobileNetV3Small_1_expanded_conv_5_squeeze_excite_avg_pool_1_Mean_cast_fp16 = reduce_mean(axes = const_36, keep_dims = functional_1_MobileNetV3Small_1_expanded_conv_5_squeeze_excite_avg_pool_1_Mean_keep_dims_0, x = functional_1_MobileNetV3Small_1_activation_6_1_mul_cast_fp16)[name = tensor<string, []>("functional_1_MobileNetV3Small_1_expanded_conv_5_squeeze_excite_avg_pool_1_Mean_cast_fp16")];
            tensor<string, []> functional_1_MobileNetV3Small_1_expanded_conv_5_squeeze_excite_conv_1_convolutionx_pad_type_0 = const()[name = tensor<string, []>("functional_1_MobileNetV3Small_1_expanded_conv_5_squeeze_excite_conv_1_convolutionx_pad_type_0"), val = tensor<string, []>("same")];
            tensor<int32, [2]> functional_1_MobileNetV3Small_1_expanded_conv_5_squeeze_excite_conv_1_convolutionx_strides_0 = const()[name = tensor<string, []>("functional_1_MobileNetV3Small_1_expanded_conv_5_squeeze_excite_conv_1_convolutionx_strides_0"), val = tensor<int32, [2]>([1, 1])];
            tensor<int32, [2]> functional_1_MobileNetV3Small_1_expanded_conv_5_squeeze_excite_conv_1_convolutionx_dilations_0 = const()[name = tensor<string, []>("functional_1_MobileNetV3Small_1_expanded_conv_5_squeeze_excite_conv_1_convolutionx_dilations_0"), val = tensor<int32, [2]>([1, 1])];
            tensor<int32, []> functional_1_MobileNetV3Small_1_expanded_conv_5_squeeze_excite_conv_1_convolutionx_groups_0 = const()[name = tensor<string, []>("functional_1_MobileNetV3Small_1_expanded_conv_5_squeeze_excite_conv_1_convolutionx_groups_0"), val = tensor<int32, []>(1)];
            tensor<int32, [4]> functional_1_MobileNetV3Small_1_expanded_conv_5_squeeze_excite_conv_1_convolutionx_pad_0 = const()[name = tensor<string, []>("functional_1_MobileNetV3Small_1_expanded_conv_5_squeeze_excite_conv_1_convolutionx_pad_0"), val = tensor<int32, [4]>([0, 0, 0, 0])];
            tensor<fp16, [64, 240, 1, 1]> transpose_46_to_fp16 = const()[name = tensor<string, []>("transpose_46_to_fp16"), val = tensor<fp16, [64, 240, 1, 1]>(BLOBFILE(path = tensor<string, []>("@model_path/weights/weight.bin"), offset = tensor<uint64, []>(196480)))];
            tensor<fp16, [64]> const_98_to_fp16 = const()[name = tensor<string, []>("const_98_to_fp16"), val = tensor<fp16, [64]>(BLOBFILE(path = tensor<string, []>("@model_path/weights/weight.bin"), offset = tensor<uint64, []>(227264)))];
            tensor<fp16, [1, 64, 1, 1]> functional_1_MobileNetV3Small_1_expanded_conv_5_squeeze_excite_conv_1_BiasAdd_cast_fp16 = conv(bias = const_98_to_fp16, dilations = functional_1_MobileNetV3Small_1_expanded_conv_5_squeeze_excite_conv_1_convolutionx_dilations_0, groups = functional_1_MobileNetV3Small_1_expanded_conv_5_squeeze_excite_conv_1_convolutionx_groups_0, pad = functional_1_MobileNetV3Small_1_expanded_conv_5_squeeze_excite_conv_1_convolutionx_pad_0, pad_type = functional_1_MobileNetV3Small_1_expanded_conv_5_squeeze_excite_conv_1_convolutionx_pad_type_0, strides = functional_1_MobileNetV3Small_1_expanded_conv_5_squeeze_excite_conv_1_convolutionx_strides_0, weight = transpose_46_to_fp16, x = functional_1_MobileNetV3Small_1_expanded_conv_5_squeeze_excite_avg_pool_1_Mean_cast_fp16)[name = tensor<string, []>("functional_1_MobileNetV3Small_1_expanded_conv_5_squeeze_excite_conv_1_BiasAdd_cast_fp16")];
            tensor<fp16, [1, 64, 1, 1]> functional_1_MobileNetV3Small_1_expanded_conv_5_squeeze_excite_relu_1_Relu_cast_fp16 = relu(x = functional_1_MobileNetV3Small_1_expanded_conv_5_squeeze_excite_conv_1_BiasAdd_cast_fp16)[name = tensor<string, []>("functional_1_MobileNetV3Small_1_expanded_conv_5_squeeze_excite_relu_1_Relu_cast_fp16")];
            tensor<string, []> functional_1_MobileNetV3Small_1_expanded_conv_5_squeeze_excite_conv_1_2_convolutionx_pad_type_0 = const()[name = tensor<string, []>("functional_1_MobileNetV3Small_1_expanded_conv_5_squeeze_excite_conv_1_2_convolutionx_pad_type_0"), val = tensor<string, []>("same")];
            tensor<int32, [2]> functional_1_MobileNetV3Small_1_expanded_conv_5_squeeze_excite_conv_1_2_convolutionx_strides_0 = const()[name = tensor<string, []>("functional_1_MobileNetV3Small_1_expanded_conv_5_squeeze_excite_conv_1_2_convolutionx_strides_0"), val = tensor<int32, [2]>([1, 1])];
            tensor<int32, [2]> functional_1_MobileNetV3Small_1_expanded_conv_5_squeeze_excite_conv_1_2_convolutionx_dilations_0 = const()[name = tensor<string, []>("functional_1_MobileNetV3Small_1_expanded_conv_5_squeeze_excite_conv_1_2_convolutionx_dilations_0"), val = tensor<int32, [2]>([1, 1])];
            tensor<int32, []> functional_1_MobileNetV3Small_1_expanded_conv_5_squeeze_excite_conv_1_2_convolutionx_groups_0 = const()[name = tensor<string, []>("functional_1_MobileNetV3Small_1_expanded_conv_5_squeeze_excite_conv_1_2_convolutionx_groups_0"), val = tensor<int32, []>(1)];
            tensor<int32, [4]> functional_1_MobileNetV3Small_1_expanded_conv_5_squeeze_excite_conv_1_2_convolutionx_pad_0 = const()[name = tensor<string, []>("functional_1_MobileNetV3Small_1_expanded_conv_5_squeeze_excite_conv_1_2_convolutionx_pad_0"), val = tensor<int32, [4]>([0, 0, 0, 0])];
            tensor<fp16, [240, 64, 1, 1]> transpose_48_to_fp16 = const()[name = tensor<string, []>("transpose_48_to_fp16"), val = tensor<fp16, [240, 64, 1, 1]>(BLOBFILE(path = tensor<string, []>("@model_path/weights/weight.bin"), offset = tensor<uint64, []>(227456)))];
            tensor<fp16, [240]> const_129_to_fp16 = const()[name = tensor<string, []>("const_129_to_fp16"), val = tensor<fp16, [240]>(BLOBFILE(path = tensor<string, []>("@model_path/weights/weight.bin"), offset = tensor<uint64, []>(258240)))];
            tensor<fp16, [1, 240, 1, 1]> functional_1_MobileNetV3Small_1_Add_3_cast_fp16 = conv(bias = const_129_to_fp16, dilations = functional_1_MobileNetV3Small_1_expanded_conv_5_squeeze_excite_conv_1_2_convolutionx_dilations_0, groups = functional_1_MobileNetV3Small_1_expanded_conv_5_squeeze_excite_conv_1_2_convolutionx_groups_0, pad = functional_1_MobileNetV3Small_1_expanded_conv_5_squeeze_excite_conv_1_2_convolutionx_pad_0, pad_type = functional_1_MobileNetV3Small_1_expanded_conv_5_squeeze_excite_conv_1_2_convolutionx_pad_type_0, strides = functional_1_MobileNetV3Small_1_expanded_conv_5_squeeze_excite_conv_1_2_convolutionx_strides_0, weight = transpose_48_to_fp16, x = functional_1_MobileNetV3Small_1_expanded_conv_5_squeeze_excite_relu_1_Relu_cast_fp16)[name = tensor<string, []>("functional_1_MobileNetV3Small_1_Add_3_cast_fp16")];
            tensor<fp16, [1, 240, 1, 1]> functional_1_MobileNetV3Small_1_re_lu_8_1_Relu6_cast_fp16 = relu6(x = functional_1_MobileNetV3Small_1_Add_3_cast_fp16)[name = tensor<string, []>("functional_1_MobileNetV3Small_1_re_lu_8_1_Relu6_cast_fp16")];
            tensor<fp16, []> functional_1_MobileNetV3Small_1_Const_7_to_fp16 = const()[name = tensor<string, []>("functional_1_MobileNetV3Small_1_Const_7_to_fp16"), val = tensor<fp16, []>(0x1.554p-3)];
            tensor<fp16, [1, 240, 1, 1]> functional_1_MobileNetV3Small_1_Mul_3_cast_fp16 = mul(x = functional_1_MobileNetV3Small_1_re_lu_8_1_Relu6_cast_fp16, y = functional_1_MobileNetV3Small_1_Const_7_to_fp16)[name = tensor<string, []>("functional_1_MobileNetV3Small_1_Mul_3_cast_fp16")];
            tensor<fp16, [1, 240, 14, 14]> functional_1_MobileNetV3Small_1_expanded_conv_5_squeeze_excite_mul_1_Mul_cast_fp16 = mul(x = functional_1_MobileNetV3Small_1_activation_6_1_mul_cast_fp16, y = functional_1_MobileNetV3Small_1_Mul_3_cast_fp16)[name = tensor<string, []>("functional_1_MobileNetV3Small_1_expanded_conv_5_squeeze_excite_mul_1_Mul_cast_fp16")];
            tensor<string, []> functional_1_MobileNetV3Small_1_expanded_conv_5_project_bn_1_batchnorm_mul_1x_pad_type_0 = const()[name = tensor<string, []>("functional_1_MobileNetV3Small_1_expanded_conv_5_project_bn_1_batchnorm_mul_1x_pad_type_0"), val = tensor<string, []>("same")];
            tensor<int32, [2]> functional_1_MobileNetV3Small_1_expanded_conv_5_project_bn_1_batchnorm_mul_1x_strides_0 = const()[name = tensor<string, []>("functional_1_MobileNetV3Small_1_expanded_conv_5_project_bn_1_batchnorm_mul_1x_strides_0"), val = tensor<int32, [2]>([1, 1])];
            tensor<int32, [2]> functional_1_MobileNetV3Small_1_expanded_conv_5_project_bn_1_batchnorm_mul_1x_dilations_0 = const()[name = tensor<string, []>("functional_1_MobileNetV3Small_1_expanded_conv_5_project_bn_1_batchnorm_mul_1x_dilations_0"), val = tensor<int32, [2]>([1, 1])];
            tensor<int32, []> functional_1_MobileNetV3Small_1_expanded_conv_5_project_bn_1_batchnorm_mul_1x_groups_0 = const()[name = tensor<string, []>("functional_1_MobileNetV3Small_1_expanded_conv_5_project_bn_1_batchnorm_mul_1x_groups_0"), val = tensor<int32, []>(1)];
            tensor<int32, [4]> functional_1_MobileNetV3Small_1_expanded_conv_5_project_bn_1_batchnorm_mul_1x_pad_0 = const()[name = tensor<string, []>("functional_1_MobileNetV3Small_1_expanded_conv_5_project_bn_1_batchnorm_mul_1x_pad_0"), val = tensor<int32, [4]>([0, 0, 0, 0])];
            tensor<fp16, [40, 240, 1, 1]> transpose_50_to_fp16 = const()[name = tensor<string, []>("transpose_50_to_fp16"), val = tensor<fp16, [40, 240, 1, 1]>(BLOBFILE(path = tensor<string, []>("@model_path/weights/weight.bin"), offset = tensor<uint64, []>(258816)))];
            tensor<fp16, [40]> const_100_to_fp16 = const()[name = tensor<string, []>("const_100_to_fp16"), val = tensor<fp16, [40]>(BLOBFILE(path = tensor<string, []>("@model_path/weights/weight.bin"), offset = tensor<uint64, []>(278080)))];
            tensor<fp16, [1, 40, 14, 14]> functional_1_MobileNetV3Small_1_expanded_conv_5_project_bn_1_batchnorm_add_1_cast_fp16 = conv(bias = const_100_to_fp16, dilations = functional_1_MobileNetV3Small_1_expanded_conv_5_project_bn_1_batchnorm_mul_1x_dilations_0, groups = functional_1_MobileNetV3Small_1_expanded_conv_5_project_bn_1_batchnorm_mul_1x_groups_0, pad = functional_1_MobileNetV3Small_1_expanded_conv_5_project_bn_1_batchnorm_mul_1x_pad_0, pad_type = functional_1_MobileNetV3Small_1_expanded_conv_5_project_bn_1_batchnorm_mul_1x_pad_type_0, strides = functional_1_MobileNetV3Small_1_expanded_conv_5_project_bn_1_batchnorm_mul_1x_strides_0, weight = transpose_50_to_fp16, x = functional_1_MobileNetV3Small_1_expanded_conv_5_squeeze_excite_mul_1_Mul_cast_fp16)[name = tensor<string, []>("functional_1_MobileNetV3Small_1_expanded_conv_5_project_bn_1_batchnorm_add_1_cast_fp16")];
            tensor<fp16, [1, 40, 14, 14]> functional_1_MobileNetV3Small_1_expanded_conv_5_add_1_Add_cast_fp16 = add(x = functional_1_MobileNetV3Small_1_expanded_conv_4_add_1_Add_cast_fp16, y = functional_1_MobileNetV3Small_1_expanded_conv_5_project_bn_1_batchnorm_add_1_cast_fp16)[name = tensor<string, []>("functional_1_MobileNetV3Small_1_expanded_conv_5_add_1_Add_cast_fp16")];
            tensor<string, []> functional_1_MobileNetV3Small_1_expanded_conv_6_expand_bn_1_batchnorm_mul_1x_pad_type_0 = const()[name = tensor<string, []>("functional_1_MobileNetV3Small_1_expanded_conv_6_expand_bn_1_batchnorm_mul_1x_pad_type_0"), val = tensor<string, []>("same")];
            tensor<int32, [2]> functional_1_MobileNetV3Small_1_expanded_conv_6_expand_bn_1_batchnorm_mul_1x_strides_0 = const()[name = tensor<string, []>("functional_1_MobileNetV3Small_1_expanded_conv_6_expand_bn_1_batchnorm_mul_1x_strides_0"), val = tensor<int32, [2]>([1, 1])];
            tensor<int32, [2]> functional_1_MobileNetV3Small_1_expanded_conv_6_expand_bn_1_batchnorm_mul_1x_dilations_0 = const()[name = tensor<string, []>("functional_1_MobileNetV3Small_1_expanded_conv_6_expand_bn_1_batchnorm_mul_1x_dilations_0"), val = tensor<int32, [2]>([1, 1])];
            tensor<int32, []> functional_1_MobileNetV3Small_1_expanded_conv_6_expand_bn_1_batchnorm_mul_1x_groups_0 = const()[name = tensor<string, []>("functional_1_MobileNetV3Small_1_expanded_conv_6_expand_bn_1_batchnorm_mul_1x_groups_0"), val = tensor<int32, []>(1)];
            tensor<int32, [4]> functional_1_MobileNetV3Small_1_expanded_conv_6_expand_bn_1_batchnorm_mul_1x_pad_0 = const()[name = tensor<string, []>("functional_1_MobileNetV3Small_1_expanded_conv_6_expand_bn_1_batchnorm_mul_1x_pad_0"), val = tensor<int32, [4]>([0, 0, 0, 0])];
            tensor<fp16, [120, 40, 1, 1]> transpose_52_to_fp16 = const()[name = tensor<string, []>("transpose_52_to_fp16"), val = tensor<fp16, [120, 40, 1, 1]>(BLOBFILE(path = tensor<string, []>("@model_path/weights/weight.bin"), offset = tensor<uint64, []>(278272)))];
            tensor<fp16, [120]> const_101_to_fp16 = const()[name = tensor<string, []>("const_101_to_fp16"), val = tensor<fp16, [120]>(BLOBFILE(path = tensor<string, []>("@model_path/weights/weight.bin"), offset = tensor<uint64, []>(287936)))];
            tensor<fp16, [1, 120, 14, 14]> functional_1_MobileNetV3Small_1_expanded_conv_6_expand_bn_1_batchnorm_add_1_cast_fp16 = conv(bias = const_101_to_fp16, dilations = functional_1_MobileNetV3Small_1_expanded_conv_6_expand_bn_1_batchnorm_mul_1x_dilations_0, groups = functional_1_MobileNetV3Small_1_expanded_conv_6_expand_bn_1_batchnorm_mul_1x_groups_0, pad = functional_1_MobileNetV3Small_1_expanded_conv_6_expand_bn_1_batchnorm_mul_1x_pad_0, pad_type = functional_1_MobileNetV3Small_1_expanded_conv_6_expand_bn_1_batchnorm_mul_1x_pad_type_0, strides = functional_1_MobileNetV3Small_1_expanded_conv_6_expand_bn_1_batchnorm_mul_1x_strides_0, weight = transpose_52_to_fp16, x = functional_1_MobileNetV3Small_1_expanded_conv_5_add_1_Add_cast_fp16)[name = tensor<string, []>("functional_1_MobileNetV3Small_1_expanded_conv_6_expand_bn_1_batchnorm_add_1_cast_fp16")];
            tensor<fp16, []> functional_1_MobileNetV3Small_1_activation_7_1_Const_to_fp16 = const()[name = tensor<string, []>("functional_1_MobileNetV3Small_1_activation_7_1_Const_to_fp16"), val = tensor<fp16, []>(0x1.8p+1)];
            tensor<fp16, [1, 120, 14, 14]> functional_1_MobileNetV3Small_1_activation_7_1_add_cast_fp16 = add(x = functional_1_MobileNetV3Small_1_expanded_conv_6_expand_bn_1_batchnorm_add_1_cast_fp16, y = functional_1_MobileNetV3Small_1_activation_7_1_Const_to_fp16)[name = tensor<string, []>("functional_1_MobileNetV3Small_1_activation_7_1_add_cast_fp16")];
            tensor<fp16, [1, 120, 14, 14]> functional_1_MobileNetV3Small_1_activation_7_1_Relu6_cast_fp16 = relu6(x = functional_1_MobileNetV3Small_1_activation_7_1_add_cast_fp16)[name = tensor<string, []>("functional_1_MobileNetV3Small_1_activation_7_1_Relu6_cast_fp16")];
            tensor<fp16, []> ConstantFolding_functional_1_MobileNetV3Small_1_activation_7_1_truediv_recip_to_fp16 = const()[name = tensor<string, []>("ConstantFolding_functional_1_MobileNetV3Small_1_activation_7_1_truediv_recip_to_fp16"), val = tensor<fp16, []>(0x1.554p-3)];
            tensor<fp16, [1, 120, 14, 14]> functional_1_MobileNetV3Small_1_activation_7_1_truediv_cast_fp16 = mul(x = functional_1_MobileNetV3Small_1_activation_7_1_Relu6_cast_fp16, y = ConstantFolding_functional_1_MobileNetV3Small_1_activation_7_1_truediv_recip_to_fp16)[name = tensor<string, []>("functional_1_MobileNetV3Small_1_activation_7_1_truediv_cast_fp16")];
            tensor<fp16, [1, 120, 14, 14]> functional_1_MobileNetV3Small_1_activation_7_1_mul_cast_fp16 = mul(x = functional_1_MobileNetV3Small_1_expanded_conv_6_expand_bn_1_batchnorm_add_1_cast_fp16, y = functional_1_MobileNetV3Small_1_activation_7_1_truediv_cast_fp16)[name = tensor<string, []>("functional_1_MobileNetV3Small_1_activation_7_1_mul_cast_fp16")];
            tensor<string, []> functional_1_MobileNetV3Small_1_expanded_conv_6_depthwise_1_depthwisex_pad_type_0 = const()[name = tensor<string, []>("functional_1_MobileNetV3Small_1_expanded_conv_6_depthwise_1_depthwisex_pad_type_0"), val = tensor<string, []>("same")];
            tensor<int32, [2]> functional_1_MobileNetV3Small_1_expanded_conv_6_depthwise_1_depthwisex_strides_0 = const()[name = tensor<string, []>("functional_1_MobileNetV3Small_1_expanded_conv_6_depthwise_1_depthwisex_strides_0"), val = tensor<int32, [2]>([1, 1])];
            tensor<int32, [2]> functional_1_MobileNetV3Small_1_expanded_conv_6_depthwise_1_depthwisex_dilations_0 = const()[name = tensor<string, []>("functional_1_MobileNetV3Small_1_expanded_conv_6_depthwise_1_depthwisex_dilations_0"), val = tensor<int32, [2]>([1, 1])];
            tensor<int32, []> functional_1_MobileNetV3Small_1_expanded_conv_6_depthwise_1_depthwisex_groups_0 = const()[name = tensor<string, []>("functional_1_MobileNetV3Small_1_expanded_conv_6_depthwise_1_depthwisex_groups_0"), val = tensor<int32, []>(120)];
            tensor<int32, [4]> functional_1_MobileNetV3Small_1_expanded_conv_6_depthwise_1_depthwisex_pad_0 = const()[name = tensor<string, []>("functional_1_MobileNetV3Small_1_expanded_conv_6_depthwise_1_depthwisex_pad_0"), val = tensor<int32, [4]>([0, 0, 0, 0])];
            tensor<fp16, [120, 1, 5, 5]> functional_1_MobileNetV3Small_1_expanded_conv_6_depthwise_bn_1_batchnorm_mul_1_weight_0_to_fp16 = const()[name = tensor<string, []>("functional_1_MobileNetV3Small_1_expanded_conv_6_depthwise_bn_1_batchnorm_mul_1_weight_0_to_fp16"), val = tensor<fp16, [120, 1, 5, 5]>(BLOBFILE(path = tensor<string, []>("@model_path/weights/weight.bin"), offset = tensor<uint64, []>(288256)))];
            tensor<fp16, [120]> const_102_to_fp16 = const()[name = tensor<string, []>("const_102_to_fp16"), val = tensor<fp16, [120]>(BLOBFILE(path = tensor<string, []>("@model_path/weights/weight.bin"), offset = tensor<uint64, []>(294336)))];
            tensor<fp16, [1, 120, 14, 14]> functional_1_MobileNetV3Small_1_expanded_conv_6_depthwise_bn_1_batchnorm_add_1_cast_fp16 = conv(bias = const_102_to_fp16, dilations = functional_1_MobileNetV3Small_1_expanded_conv_6_depthwise_1_depthwisex_dilations_0, groups = functional_1_MobileNetV3Small_1_expanded_conv_6_depthwise_1_depthwisex_groups_0, pad = functional_1_MobileNetV3Small_1_expanded_conv_6_depthwise_1_depthwisex_pad_0, pad_type = functional_1_MobileNetV3Small_1_expanded_conv_6_depthwise_1_depthwisex_pad_type_0, strides = functional_1_MobileNetV3Small_1_expanded_conv_6_depthwise_1_depthwisex_strides_0, weight = functional_1_MobileNetV3Small_1_expanded_conv_6_depthwise_bn_1_batchnorm_mul_1_weight_0_to_fp16, x = functional_1_MobileNetV3Small_1_activation_7_1_mul_cast_fp16)[name = tensor<string, []>("functional_1_MobileNetV3Small_1_expanded_conv_6_depthwise_bn_1_batchnorm_add_1_cast_fp16")];
            tensor<fp16, []> functional_1_MobileNetV3Small_1_activation_8_1_Const_to_fp16 = const()[name = tensor<string, []>("functional_1_MobileNetV3Small_1_activation_8_1_Const_to_fp16"), val = tensor<fp16, []>(0x1.8p+1)];
            tensor<fp16, [1, 120, 14, 14]> functional_1_MobileNetV3Small_1_activation_8_1_add_cast_fp16 = add(x = functional_1_MobileNetV3Small_1_expanded_conv_6_depthwise_bn_1_batchnorm_add_1_cast_fp16, y = functional_1_MobileNetV3Small_1_activation_8_1_Const_to_fp16)[name = tensor<string, []>("functional_1_MobileNetV3Small_1_activation_8_1_add_cast_fp16")];
            tensor<fp16, [1, 120, 14, 14]> functional_1_MobileNetV3Small_1_activation_8_1_Relu6_cast_fp16 = relu6(x = functional_1_MobileNetV3Small_1_activation_8_1_add_cast_fp16)[name = tensor<string, []>("functional_1_MobileNetV3Small_1_activation_8_1_Relu6_cast_fp16")];
            tensor<fp16, []> ConstantFolding_functional_1_MobileNetV3Small_1_activation_8_1_truediv_recip_to_fp16 = const()[name = tensor<string, []>("ConstantFolding_functional_1_MobileNetV3Small_1_activation_8_1_truediv_recip_to_fp16"), val = tensor<fp16, []>(0x1.554p-3)];
            tensor<fp16, [1, 120, 14, 14]> functional_1_MobileNetV3Small_1_activation_8_1_truediv_cast_fp16 = mul(x = functional_1_MobileNetV3Small_1_activation_8_1_Relu6_cast_fp16, y = ConstantFolding_functional_1_MobileNetV3Small_1_activation_8_1_truediv_recip_to_fp16)[name = tensor<string, []>("functional_1_MobileNetV3Small_1_activation_8_1_truediv_cast_fp16")];
            tensor<fp16, [1, 120, 14, 14]> functional_1_MobileNetV3Small_1_activation_8_1_mul_cast_fp16 = mul(x = functional_1_MobileNetV3Small_1_expanded_conv_6_depthwise_bn_1_batchnorm_add_1_cast_fp16, y = functional_1_MobileNetV3Small_1_activation_8_1_truediv_cast_fp16)[name = tensor<string, []>("functional_1_MobileNetV3Small_1_activation_8_1_mul_cast_fp16")];
            tensor<bool, []> functional_1_MobileNetV3Small_1_expanded_conv_6_squeeze_excite_avg_pool_1_Mean_keep_dims_0 = const()[name = tensor<string, []>("functional_1_MobileNetV3Small_1_expanded_conv_6_squeeze_excite_avg_pool_1_Mean_keep_dims_0"), val = tensor<bool, []>(true)];
            tensor<int32, [2]> const_43 = const()[name = tensor<string, []>("const_43"), val = tensor<int32, [2]>([2, 3])];
            tensor<fp16, [1, 120, 1, 1]> functional_1_MobileNetV3Small_1_expanded_conv_6_squeeze_excite_avg_pool_1_Mean_cast_fp16 = reduce_mean(axes = const_43, keep_dims = functional_1_MobileNetV3Small_1_expanded_conv_6_squeeze_excite_avg_pool_1_Mean_keep_dims_0, x = functional_1_MobileNetV3Small_1_activation_8_1_mul_cast_fp16)[name = tensor<string, []>("functional_1_MobileNetV3Small_1_expanded_conv_6_squeeze_excite_avg_pool_1_Mean_cast_fp16")];
            tensor<string, []> functional_1_MobileNetV3Small_1_expanded_conv_6_squeeze_excite_conv_1_convolutionx_pad_type_0 = const()[name = tensor<string, []>("functional_1_MobileNetV3Small_1_expanded_conv_6_squeeze_excite_conv_1_convolutionx_pad_type_0"), val = tensor<string, []>("same")];
            tensor<int32, [2]> functional_1_MobileNetV3Small_1_expanded_conv_6_squeeze_excite_conv_1_convolutionx_strides_0 = const()[name = tensor<string, []>("functional_1_MobileNetV3Small_1_expanded_conv_6_squeeze_excite_conv_1_convolutionx_strides_0"), val = tensor<int32, [2]>([1, 1])];
            tensor<int32, [2]> functional_1_MobileNetV3Small_1_expanded_conv_6_squeeze_excite_conv_1_convolutionx_dilations_0 = const()[name = tensor<string, []>("functional_1_MobileNetV3Small_1_expanded_conv_6_squeeze_excite_conv_1_convolutionx_dilations_0"), val = tensor<int32, [2]>([1, 1])];
            tensor<int32, []> functional_1_MobileNetV3Small_1_expanded_conv_6_squeeze_excite_conv_1_convolutionx_groups_0 = const()[name = tensor<string, []>("functional_1_MobileNetV3Small_1_expanded_conv_6_squeeze_excite_conv_1_convolutionx_groups_0"), val = tensor<int32, []>(1)];
            tensor<int32, [4]> functional_1_MobileNetV3Small_1_expanded_conv_6_squeeze_excite_conv_1_convolutionx_pad_0 = const()[name = tensor<string, []>("functional_1_MobileNetV3Small_1_expanded_conv_6_squeeze_excite_conv_1_convolutionx_pad_0"), val = tensor<int32, [4]>([0, 0, 0, 0])];
            tensor<fp16, [32, 120, 1, 1]> transpose_56_to_fp16 = const()[name = tensor<string, []>("transpose_56_to_fp16"), val = tensor<fp16, [32, 120, 1, 1]>(BLOBFILE(path = tensor<string, []>("@model_path/weights/weight.bin"), offset = tensor<uint64, []>(294656)))];
            tensor<fp16, [32]> const_103_to_fp16 = const()[name = tensor<string, []>("const_103_to_fp16"), val = tensor<fp16, [32]>(BLOBFILE(path = tensor<string, []>("@model_path/weights/weight.bin"), offset = tensor<uint64, []>(302400)))];
            tensor<fp16, [1, 32, 1, 1]> functional_1_MobileNetV3Small_1_expanded_conv_6_squeeze_excite_conv_1_BiasAdd_cast_fp16 = conv(bias = const_103_to_fp16, dilations = functional_1_MobileNetV3Small_1_expanded_conv_6_squeeze_excite_conv_1_convolutionx_dilations_0, groups = functional_1_MobileNetV3Small_1_expanded_conv_6_squeeze_excite_conv_1_convolutionx_groups_0, pad = functional_1_MobileNetV3Small_1_expanded_conv_6_squeeze_excite_conv_1_convolutionx_pad_0, pad_type = functional_1_MobileNetV3Small_1_expanded_conv_6_squeeze_excite_conv_1_convolutionx_pad_type_0, strides = functional_1_MobileNetV3Small_1_expanded_conv_6_squeeze_excite_conv_1_convolutionx_strides_0, weight = transpose_56_to_fp16, x = functional_1_MobileNetV3Small_1_expanded_conv_6_squeeze_excite_avg_pool_1_Mean_cast_fp16)[name = tensor<string, []>("functional_1_MobileNetV3Small_1_expanded_conv_6_squeeze_excite_conv_1_BiasAdd_cast_fp16")];
            tensor<fp16, [1, 32, 1, 1]> functional_1_MobileNetV3Small_1_expanded_conv_6_squeeze_excite_relu_1_Relu_cast_fp16 = relu(x = functional_1_MobileNetV3Small_1_expanded_conv_6_squeeze_excite_conv_1_BiasAdd_cast_fp16)[name = tensor<string, []>("functional_1_MobileNetV3Small_1_expanded_conv_6_squeeze_excite_relu_1_Relu_cast_fp16")];
            tensor<string, []> functional_1_MobileNetV3Small_1_expanded_conv_6_squeeze_excite_conv_1_2_convolutionx_pad_type_0 = const()[name = tensor<string, []>("functional_1_MobileNetV3Small_1_expanded_conv_6_squeeze_excite_conv_1_2_convolutionx_pad_type_0"), val = tensor<string, []>("same")];
            tensor<int32, [2]> functional_1_MobileNetV3Small_1_expanded_conv_6_squeeze_excite_conv_1_2_convolutionx_strides_0 = const()[name = tensor<string, []>("functional_1_MobileNetV3Small_1_expanded_conv_6_squeeze_excite_conv_1_2_convolutionx_strides_0"), val = tensor<int32, [2]>([1, 1])];
            tensor<int32, [2]> functional_1_MobileNetV3Small_1_expanded_conv_6_squeeze_excite_conv_1_2_convolutionx_dilations_0 = const()[name = tensor<string, []>("functional_1_MobileNetV3Small_1_expanded_conv_6_squeeze_excite_conv_1_2_convolutionx_dilations_0"), val = tensor<int32, [2]>([1, 1])];
            tensor<int32, []> functional_1_MobileNetV3Small_1_expanded_conv_6_squeeze_excite_conv_1_2_convolutionx_groups_0 = const()[name = tensor<string, []>("functional_1_MobileNetV3Small_1_expanded_conv_6_squeeze_excite_conv_1_2_convolutionx_groups_0"), val = tensor<int32, []>(1)];
            tensor<int32, [4]> functional_1_MobileNetV3Small_1_expanded_conv_6_squeeze_excite_conv_1_2_convolutionx_pad_0 = const()[name = tensor<string, []>("functional_1_MobileNetV3Small_1_expanded_conv_6_squeeze_excite_conv_1_2_convolutionx_pad_0"), val = tensor<int32, [4]>([0, 0, 0, 0])];
            tensor<fp16, [120, 32, 1, 1]> transpose_58_to_fp16 = const()[name = tensor<string, []>("transpose_58_to_fp16"), val = tensor<fp16, [120, 32, 1, 1]>(BLOBFILE(path = tensor<string, []>("@model_path/weights/weight.bin"), offset = tensor<uint64, []>(302528)))];
            tensor<fp16, [120]> const_130_to_fp16 = const()[name = tensor<string, []>("const_130_to_fp16"), val = tensor<fp16, [120]>(BLOBFILE(path = tensor<string, []>("@model_path/weights/weight.bin"), offset = tensor<uint64, []>(310272)))];
            tensor<fp16, [1, 120, 1, 1]> functional_1_MobileNetV3Small_1_Add_4_cast_fp16 = conv(bias = const_130_to_fp16, dilations = functional_1_MobileNetV3Small_1_expanded_conv_6_squeeze_excite_conv_1_2_convolutionx_dilations_0, groups = functional_1_MobileNetV3Small_1_expanded_conv_6_squeeze_excite_conv_1_2_convolutionx_groups_0, pad = functional_1_MobileNetV3Small_1_expanded_conv_6_squeeze_excite_conv_1_2_convolutionx_pad_0, pad_type = functional_1_MobileNetV3Small_1_expanded_conv_6_squeeze_excite_conv_1_2_convolutionx_pad_type_0, strides = functional_1_MobileNetV3Small_1_expanded_conv_6_squeeze_excite_conv_1_2_convolutionx_strides_0, weight = transpose_58_to_fp16, x = functional_1_MobileNetV3Small_1_expanded_conv_6_squeeze_excite_relu_1_Relu_cast_fp16)[name = tensor<string, []>("functional_1_MobileNetV3Small_1_Add_4_cast_fp16")];
            tensor<fp16, [1, 120, 1, 1]> functional_1_MobileNetV3Small_1_re_lu_9_1_Relu6_cast_fp16 = relu6(x = functional_1_MobileNetV3Small_1_Add_4_cast_fp16)[name = tensor<string, []>("functional_1_MobileNetV3Small_1_re_lu_9_1_Relu6_cast_fp16")];
            tensor<fp16, []> functional_1_MobileNetV3Small_1_Const_9_to_fp16 = const()[name = tensor<string, []>("functional_1_MobileNetV3Small_1_Const_9_to_fp16"), val = tensor<fp16, []>(0x1.554p-3)];
            tensor<fp16, [1, 120, 1, 1]> functional_1_MobileNetV3Small_1_Mul_4_cast_fp16 = mul(x = functional_1_MobileNetV3Small_1_re_lu_9_1_Relu6_cast_fp16, y = functional_1_MobileNetV3Small_1_Const_9_to_fp16)[name = tensor<string, []>("functional_1_MobileNetV3Small_1_Mul_4_cast_fp16")];
            tensor<fp16, [1, 120, 14, 14]> functional_1_MobileNetV3Small_1_expanded_conv_6_squeeze_excite_mul_1_Mul_cast_fp16 = mul(x = functional_1_MobileNetV3Small_1_activation_8_1_mul_cast_fp16, y = functional_1_MobileNetV3Small_1_Mul_4_cast_fp16)[name = tensor<string, []>("functional_1_MobileNetV3Small_1_expanded_conv_6_squeeze_excite_mul_1_Mul_cast_fp16")];
            tensor<string, []> functional_1_MobileNetV3Small_1_expanded_conv_6_project_bn_1_batchnorm_mul_1x_pad_type_0 = const()[name = tensor<string, []>("functional_1_MobileNetV3Small_1_expanded_conv_6_project_bn_1_batchnorm_mul_1x_pad_type_0"), val = tensor<string, []>("same")];
            tensor<int32, [2]> functional_1_MobileNetV3Small_1_expanded_conv_6_project_bn_1_batchnorm_mul_1x_strides_0 = const()[name = tensor<string, []>("functional_1_MobileNetV3Small_1_expanded_conv_6_project_bn_1_batchnorm_mul_1x_strides_0"), val = tensor<int32, [2]>([1, 1])];
            tensor<int32, [2]> functional_1_MobileNetV3Small_1_expanded_conv_6_project_bn_1_batchnorm_mul_1x_dilations_0 = const()[name = tensor<string, []>("functional_1_MobileNetV3Small_1_expanded_conv_6_project_bn_1_batchnorm_mul_1x_dilations_0"), val = tensor<int32, [2]>([1, 1])];
            tensor<int32, []> functional_1_MobileNetV3Small_1_expanded_conv_6_project_bn_1_batchnorm_mul_1x_groups_0 = const()[name = tensor<string, []>("functional_1_MobileNetV3Small_1_expanded_conv_6_project_bn_1_batchnorm_mul_1x_groups_0"), val = tensor<int32, []>(1)];
            tensor<int32, [4]> functional_1_MobileNetV3Small_1_expanded_conv_6_project_bn_1_batchnorm_mul_1x_pad_0 = const()[name = tensor<string, []>("functional_1_MobileNetV3Small_1_expanded_conv_6_project_bn_1_batchnorm_mul_1x_pad_0"), val = tensor<int32, [4]>([0, 0, 0, 0])];
            tensor<fp16, [48, 120, 1, 1]> transpose_60_to_fp16 = const()[name = tensor<string, []>("transpose_60_to_fp16"), val = tensor<fp16, [48, 120, 1, 1]>(BLOBFILE(path = tensor<string, []>("@model_path/weights/weight.bin"), offset = tensor<uint64, []>(310592)))];
            tensor<fp16, [48]> const_105_to_fp16 = const()[name = tensor<string, []>("const_105_to_fp16"), val = tensor<fp16, [48]>(BLOBFILE(path = tensor<string, []>("@model_path/weights/weight.bin"), offset = tensor<uint64, []>(322176)))];
            tensor<fp16, [1, 48, 14, 14]> functional_1_MobileNetV3Small_1_expanded_conv_6_project_bn_1_batchnorm_add_1_cast_fp16 = conv(bias = const_105_to_fp16, dilations = functional_1_MobileNetV3Small_1_expanded_conv_6_project_bn_1_batchnorm_mul_1x_dilations_0, groups = functional_1_MobileNetV3Small_1_expanded_conv_6_project_bn_1_batchnorm_mul_1x_groups_0, pad = functional_1_MobileNetV3Small_1_expanded_conv_6_project_bn_1_batchnorm_mul_1x_pad_0, pad_type = functional_1_MobileNetV3Small_1_expanded_conv_6_project_bn_1_batchnorm_mul_1x_pad_type_0, strides = functional_1_MobileNetV3Small_1_expanded_conv_6_project_bn_1_batchnorm_mul_1x_strides_0, weight = transpose_60_to_fp16, x = functional_1_MobileNetV3Small_1_expanded_conv_6_squeeze_excite_mul_1_Mul_cast_fp16)[name = tensor<string, []>("functional_1_MobileNetV3Small_1_expanded_conv_6_project_bn_1_batchnorm_add_1_cast_fp16")];
            tensor<string, []> functional_1_MobileNetV3Small_1_expanded_conv_7_expand_bn_1_batchnorm_mul_1x_pad_type_0 = const()[name = tensor<string, []>("functional_1_MobileNetV3Small_1_expanded_conv_7_expand_bn_1_batchnorm_mul_1x_pad_type_0"), val = tensor<string, []>("same")];
            tensor<int32, [2]> functional_1_MobileNetV3Small_1_expanded_conv_7_expand_bn_1_batchnorm_mul_1x_strides_0 = const()[name = tensor<string, []>("functional_1_MobileNetV3Small_1_expanded_conv_7_expand_bn_1_batchnorm_mul_1x_strides_0"), val = tensor<int32, [2]>([1, 1])];
            tensor<int32, [2]> functional_1_MobileNetV3Small_1_expanded_conv_7_expand_bn_1_batchnorm_mul_1x_dilations_0 = const()[name = tensor<string, []>("functional_1_MobileNetV3Small_1_expanded_conv_7_expand_bn_1_batchnorm_mul_1x_dilations_0"), val = tensor<int32, [2]>([1, 1])];
            tensor<int32, []> functional_1_MobileNetV3Small_1_expanded_conv_7_expand_bn_1_batchnorm_mul_1x_groups_0 = const()[name = tensor<string, []>("functional_1_MobileNetV3Small_1_expanded_conv_7_expand_bn_1_batchnorm_mul_1x_groups_0"), val = tensor<int32, []>(1)];
            tensor<int32, [4]> functional_1_MobileNetV3Small_1_expanded_conv_7_expand_bn_1_batchnorm_mul_1x_pad_0 = const()[name = tensor<string, []>("functional_1_MobileNetV3Small_1_expanded_conv_7_expand_bn_1_batchnorm_mul_1x_pad_0"), val = tensor<int32, [4]>([0, 0, 0, 0])];
            tensor<fp16, [144, 48, 1, 1]> transpose_62_to_fp16 = const()[name = tensor<string, []>("transpose_62_to_fp16"), val = tensor<fp16, [144, 48, 1, 1]>(BLOBFILE(path = tensor<string, []>("@model_path/weights/weight.bin"), offset = tensor<uint64, []>(322368)))];
            tensor<fp16, [144]> const_106_to_fp16 = const()[name = tensor<string, []>("const_106_to_fp16"), val = tensor<fp16, [144]>(BLOBFILE(path = tensor<string, []>("@model_path/weights/weight.bin"), offset = tensor<uint64, []>(336256)))];
            tensor<fp16, [1, 144, 14, 14]> functional_1_MobileNetV3Small_1_expanded_conv_7_expand_bn_1_batchnorm_add_1_cast_fp16 = conv(bias = const_106_to_fp16, dilations = functional_1_MobileNetV3Small_1_expanded_conv_7_expand_bn_1_batchnorm_mul_1x_dilations_0, groups = functional_1_MobileNetV3Small_1_expanded_conv_7_expand_bn_1_batchnorm_mul_1x_groups_0, pad = functional_1_MobileNetV3Small_1_expanded_conv_7_expand_bn_1_batchnorm_mul_1x_pad_0, pad_type = functional_1_MobileNetV3Small_1_expanded_conv_7_expand_bn_1_batchnorm_mul_1x_pad_type_0, strides = functional_1_MobileNetV3Small_1_expanded_conv_7_expand_bn_1_batchnorm_mul_1x_strides_0, weight = transpose_62_to_fp16, x = functional_1_MobileNetV3Small_1_expanded_conv_6_project_bn_1_batchnorm_add_1_cast_fp16)[name = tensor<string, []>("functional_1_MobileNetV3Small_1_expanded_conv_7_expand_bn_1_batchnorm_add_1_cast_fp16")];
            tensor<fp16, []> functional_1_MobileNetV3Small_1_activation_9_1_Const_to_fp16 = const()[name = tensor<string, []>("functional_1_MobileNetV3Small_1_activation_9_1_Const_to_fp16"), val = tensor<fp16, []>(0x1.8p+1)];
            tensor<fp16, [1, 144, 14, 14]> functional_1_MobileNetV3Small_1_activation_9_1_add_cast_fp16 = add(x = functional_1_MobileNetV3Small_1_expanded_conv_7_expand_bn_1_batchnorm_add_1_cast_fp16, y = functional_1_MobileNetV3Small_1_activation_9_1_Const_to_fp16)[name = tensor<string, []>("functional_1_MobileNetV3Small_1_activation_9_1_add_cast_fp16")];
            tensor<fp16, [1, 144, 14, 14]> functional_1_MobileNetV3Small_1_activation_9_1_Relu6_cast_fp16 = relu6(x = functional_1_MobileNetV3Small_1_activation_9_1_add_cast_fp16)[name = tensor<string, []>("functional_1_MobileNetV3Small_1_activation_9_1_Relu6_cast_fp16")];
            tensor<fp16, []> ConstantFolding_functional_1_MobileNetV3Small_1_activation_9_1_truediv_recip_to_fp16 = const()[name = tensor<string, []>("ConstantFolding_functional_1_MobileNetV3Small_1_activation_9_1_truediv_recip_to_fp16"), val = tensor<fp16, []>(0x1.554p-3)];
            tensor<fp16, [1, 144, 14, 14]> functional_1_MobileNetV3Small_1_activation_9_1_truediv_cast_fp16 = mul(x = functional_1_MobileNetV3Small_1_activation_9_1_Relu6_cast_fp16, y = ConstantFolding_functional_1_MobileNetV3Small_1_activation_9_1_truediv_recip_to_fp16)[name = tensor<string, []>("functional_1_MobileNetV3Small_1_activation_9_1_truediv_cast_fp16")];
            tensor<fp16, [1, 144, 14, 14]> functional_1_MobileNetV3Small_1_activation_9_1_mul_cast_fp16 = mul(x = functional_1_MobileNetV3Small_1_expanded_conv_7_expand_bn_1_batchnorm_add_1_cast_fp16, y = functional_1_MobileNetV3Small_1_activation_9_1_truediv_cast_fp16)[name = tensor<string, []>("functional_1_MobileNetV3Small_1_activation_9_1_mul_cast_fp16")];
            tensor<string, []> functional_1_MobileNetV3Small_1_expanded_conv_7_depthwise_1_depthwisex_pad_type_0 = const()[name = tensor<string, []>("functional_1_MobileNetV3Small_1_expanded_conv_7_depthwise_1_depthwisex_pad_type_0"), val = tensor<string, []>("same")];
            tensor<int32, [2]> functional_1_MobileNetV3Small_1_expanded_conv_7_depthwise_1_depthwisex_strides_0 = const()[name = tensor<string, []>("functional_1_MobileNetV3Small_1_expanded_conv_7_depthwise_1_depthwisex_strides_0"), val = tensor<int32, [2]>([1, 1])];
            tensor<int32, [2]> functional_1_MobileNetV3Small_1_expanded_conv_7_depthwise_1_depthwisex_dilations_0 = const()[name = tensor<string, []>("functional_1_MobileNetV3Small_1_expanded_conv_7_depthwise_1_depthwisex_dilations_0"), val = tensor<int32, [2]>([1, 1])];
            tensor<int32, []> functional_1_MobileNetV3Small_1_expanded_conv_7_depthwise_1_depthwisex_groups_0 = const()[name = tensor<string, []>("functional_1_MobileNetV3Small_1_expanded_conv_7_depthwise_1_depthwisex_groups_0"), val = tensor<int32, []>(144)];
            tensor<int32, [4]> functional_1_MobileNetV3Small_1_expanded_conv_7_depthwise_1_depthwisex_pad_0 = const()[name = tensor<string, []>("functional_1_MobileNetV3Small_1_expanded_conv_7_depthwise_1_depthwisex_pad_0"), val = tensor<int32, [4]>([0, 0, 0, 0])];
            tensor<fp16, [144, 1, 5, 5]> functional_1_MobileNetV3Small_1_expanded_conv_7_depthwise_bn_1_batchnorm_mul_1_weight_0_to_fp16 = const()[name = tensor<string, []>("functional_1_MobileNetV3Small_1_expanded_conv_7_depthwise_bn_1_batchnorm_mul_1_weight_0_to_fp16"), val = tensor<fp16, [144, 1, 5, 5]>(BLOBFILE(path = tensor<string, []>("@model_path/weights/weight.bin"), offset = tensor<uint64, []>(336640)))];
            tensor<fp16, [144]> const_107_to_fp16 = const()[name = tensor<string, []>("const_107_to_fp16"), val = tensor<fp16, [144]>(BLOBFILE(path = tensor<string, []>("@model_path/weights/weight.bin"), offset = tensor<uint64, []>(343936)))];
            tensor<fp16, [1, 144, 14, 14]> functional_1_MobileNetV3Small_1_expanded_conv_7_depthwise_bn_1_batchnorm_add_1_cast_fp16 = conv(bias = const_107_to_fp16, dilations = functional_1_MobileNetV3Small_1_expanded_conv_7_depthwise_1_depthwisex_dilations_0, groups = functional_1_MobileNetV3Small_1_expanded_conv_7_depthwise_1_depthwisex_groups_0, pad = functional_1_MobileNetV3Small_1_expanded_conv_7_depthwise_1_depthwisex_pad_0, pad_type = functional_1_MobileNetV3Small_1_expanded_conv_7_depthwise_1_depthwisex_pad_type_0, strides = functional_1_MobileNetV3Small_1_expanded_conv_7_depthwise_1_depthwisex_strides_0, weight = functional_1_MobileNetV3Small_1_expanded_conv_7_depthwise_bn_1_batchnorm_mul_1_weight_0_to_fp16, x = functional_1_MobileNetV3Small_1_activation_9_1_mul_cast_fp16)[name = tensor<string, []>("functional_1_MobileNetV3Small_1_expanded_conv_7_depthwise_bn_1_batchnorm_add_1_cast_fp16")];
            tensor<fp16, []> functional_1_MobileNetV3Small_1_activation_10_1_Const_to_fp16 = const()[name = tensor<string, []>("functional_1_MobileNetV3Small_1_activation_10_1_Const_to_fp16"), val = tensor<fp16, []>(0x1.8p+1)];
            tensor<fp16, [1, 144, 14, 14]> functional_1_MobileNetV3Small_1_activation_10_1_add_cast_fp16 = add(x = functional_1_MobileNetV3Small_1_expanded_conv_7_depthwise_bn_1_batchnorm_add_1_cast_fp16, y = functional_1_MobileNetV3Small_1_activation_10_1_Const_to_fp16)[name = tensor<string, []>("functional_1_MobileNetV3Small_1_activation_10_1_add_cast_fp16")];
            tensor<fp16, [1, 144, 14, 14]> functional_1_MobileNetV3Small_1_activation_10_1_Relu6_cast_fp16 = relu6(x = functional_1_MobileNetV3Small_1_activation_10_1_add_cast_fp16)[name = tensor<string, []>("functional_1_MobileNetV3Small_1_activation_10_1_Relu6_cast_fp16")];
            tensor<fp16, []> ConstantFolding_functional_1_MobileNetV3Small_1_activation_10_1_truediv_recip_to_fp16 = const()[name = tensor<string, []>("ConstantFolding_functional_1_MobileNetV3Small_1_activation_10_1_truediv_recip_to_fp16"), val = tensor<fp16, []>(0x1.554p-3)];
            tensor<fp16, [1, 144, 14, 14]> functional_1_MobileNetV3Small_1_activation_10_1_truediv_cast_fp16 = mul(x = functional_1_MobileNetV3Small_1_activation_10_1_Relu6_cast_fp16, y = ConstantFolding_functional_1_MobileNetV3Small_1_activation_10_1_truediv_recip_to_fp16)[name = tensor<string, []>("functional_1_MobileNetV3Small_1_activation_10_1_truediv_cast_fp16")];
            tensor<fp16, [1, 144, 14, 14]> functional_1_MobileNetV3Small_1_activation_10_1_mul_cast_fp16 = mul(x = functional_1_MobileNetV3Small_1_expanded_conv_7_depthwise_bn_1_batchnorm_add_1_cast_fp16, y = functional_1_MobileNetV3Small_1_activation_10_1_truediv_cast_fp16)[name = tensor<string, []>("functional_1_MobileNetV3Small_1_activation_10_1_mul_cast_fp16")];
            tensor<bool, []> functional_1_MobileNetV3Small_1_expanded_conv_7_squeeze_excite_avg_pool_1_Mean_keep_dims_0 = const()[name = tensor<string, []>("functional_1_MobileNetV3Small_1_expanded_conv_7_squeeze_excite_avg_pool_1_Mean_keep_dims_0"), val = tensor<bool, []>(true)];
            tensor<int32, [2]> const_50 = const()[name = tensor<string, []>("const_50"), val = tensor<int32, [2]>([2, 3])];
            tensor<fp16, [1, 144, 1, 1]> functional_1_MobileNetV3Small_1_expanded_conv_7_squeeze_excite_avg_pool_1_Mean_cast_fp16 = reduce_mean(axes = const_50, keep_dims = functional_1_MobileNetV3Small_1_expanded_conv_7_squeeze_excite_avg_pool_1_Mean_keep_dims_0, x = functional_1_MobileNetV3Small_1_activation_10_1_mul_cast_fp16)[name = tensor<string, []>("functional_1_MobileNetV3Small_1_expanded_conv_7_squeeze_excite_avg_pool_1_Mean_cast_fp16")];
            tensor<string, []> functional_1_MobileNetV3Small_1_expanded_conv_7_squeeze_excite_conv_1_convolutionx_pad_type_0 = const()[name = tensor<string, []>("functional_1_MobileNetV3Small_1_expanded_conv_7_squeeze_excite_conv_1_convolutionx_pad_type_0"), val = tensor<string, []>("same")];
            tensor<int32, [2]> functional_1_MobileNetV3Small_1_expanded_conv_7_squeeze_excite_conv_1_convolutionx_strides_0 = const()[name = tensor<string, []>("functional_1_MobileNetV3Small_1_expanded_conv_7_squeeze_excite_conv_1_convolutionx_strides_0"), val = tensor<int32, [2]>([1, 1])];
            tensor<int32, [2]> functional_1_MobileNetV3Small_1_expanded_conv_7_squeeze_excite_conv_1_convolutionx_dilations_0 = const()[name = tensor<string, []>("functional_1_MobileNetV3Small_1_expanded_conv_7_squeeze_excite_conv_1_convolutionx_dilations_0"), val = tensor<int32, [2]>([1, 1])];
            tensor<int32, []> functional_1_MobileNetV3Small_1_expanded_conv_7_squeeze_excite_conv_1_convolutionx_groups_0 = const()[name = tensor<string, []>("functional_1_MobileNetV3Small_1_expanded_conv_7_squeeze_excite_conv_1_convolutionx_groups_0"), val = tensor<int32, []>(1)];
            tensor<int32, [4]> functional_1_MobileNetV3Small_1_expanded_conv_7_squeeze_excite_conv_1_convolutionx_pad_0 = const()[name = tensor<string, []>("functional_1_MobileNetV3Small_1_expanded_conv_7_squeeze_excite_conv_1_convolutionx_pad_0"), val = tensor<int32, [4]>([0, 0, 0, 0])];
            tensor<fp16, [40, 144, 1, 1]> transpose_66_to_fp16 = const()[name = tensor<string, []>("transpose_66_to_fp16"), val = tensor<fp16, [40, 144, 1, 1]>(BLOBFILE(path = tensor<string, []>("@model_path/weights/weight.bin"), offset = tensor<uint64, []>(344320)))];
            tensor<fp16, [40]> const_108_to_fp16 = const()[name = tensor<string, []>("const_108_to_fp16"), val = tensor<fp16, [40]>(BLOBFILE(path = tensor<string, []>("@model_path/weights/weight.bin"), offset = tensor<uint64, []>(355904)))];
            tensor<fp16, [1, 40, 1, 1]> functional_1_MobileNetV3Small_1_expanded_conv_7_squeeze_excite_conv_1_BiasAdd_cast_fp16 = conv(bias = const_108_to_fp16, dilations = functional_1_MobileNetV3Small_1_expanded_conv_7_squeeze_excite_conv_1_convolutionx_dilations_0, groups = functional_1_MobileNetV3Small_1_expanded_conv_7_squeeze_excite_conv_1_convolutionx_groups_0, pad = functional_1_MobileNetV3Small_1_expanded_conv_7_squeeze_excite_conv_1_convolutionx_pad_0, pad_type = functional_1_MobileNetV3Small_1_expanded_conv_7_squeeze_excite_conv_1_convolutionx_pad_type_0, strides = functional_1_MobileNetV3Small_1_expanded_conv_7_squeeze_excite_conv_1_convolutionx_strides_0, weight = transpose_66_to_fp16, x = functional_1_MobileNetV3Small_1_expanded_conv_7_squeeze_excite_avg_pool_1_Mean_cast_fp16)[name = tensor<string, []>("functional_1_MobileNetV3Small_1_expanded_conv_7_squeeze_excite_conv_1_BiasAdd_cast_fp16")];
            tensor<fp16, [1, 40, 1, 1]> functional_1_MobileNetV3Small_1_expanded_conv_7_squeeze_excite_relu_1_Relu_cast_fp16 = relu(x = functional_1_MobileNetV3Small_1_expanded_conv_7_squeeze_excite_conv_1_BiasAdd_cast_fp16)[name = tensor<string, []>("functional_1_MobileNetV3Small_1_expanded_conv_7_squeeze_excite_relu_1_Relu_cast_fp16")];
            tensor<string, []> functional_1_MobileNetV3Small_1_expanded_conv_7_squeeze_excite_conv_1_2_convolutionx_pad_type_0 = const()[name = tensor<string, []>("functional_1_MobileNetV3Small_1_expanded_conv_7_squeeze_excite_conv_1_2_convolutionx_pad_type_0"), val = tensor<string, []>("same")];
            tensor<int32, [2]> functional_1_MobileNetV3Small_1_expanded_conv_7_squeeze_excite_conv_1_2_convolutionx_strides_0 = const()[name = tensor<string, []>("functional_1_MobileNetV3Small_1_expanded_conv_7_squeeze_excite_conv_1_2_convolutionx_strides_0"), val = tensor<int32, [2]>([1, 1])];
            tensor<int32, [2]> functional_1_MobileNetV3Small_1_expanded_conv_7_squeeze_excite_conv_1_2_convolutionx_dilations_0 = const()[name = tensor<string, []>("functional_1_MobileNetV3Small_1_expanded_conv_7_squeeze_excite_conv_1_2_convolutionx_dilations_0"), val = tensor<int32, [2]>([1, 1])];
            tensor<int32, []> functional_1_MobileNetV3Small_1_expanded_conv_7_squeeze_excite_conv_1_2_convolutionx_groups_0 = const()[name = tensor<string, []>("functional_1_MobileNetV3Small_1_expanded_conv_7_squeeze_excite_conv_1_2_convolutionx_groups_0"), val = tensor<int32, []>(1)];
            tensor<int32, [4]> functional_1_MobileNetV3Small_1_expanded_conv_7_squeeze_excite_conv_1_2_convolutionx_pad_0 = const()[name = tensor<string, []>("functional_1_MobileNetV3Small_1_expanded_conv_7_squeeze_excite_conv_1_2_convolutionx_pad_0"), val = tensor<int32, [4]>([0, 0, 0, 0])];
            tensor<fp16, [144, 40, 1, 1]> transpose_68_to_fp16 = const()[name = tensor<string, []>("transpose_68_to_fp16"), val = tensor<fp16, [144, 40, 1, 1]>(BLOBFILE(path = tensor<string, []>("@model_path/weights/weight.bin"), offset = tensor<uint64, []>(356096)))];
            tensor<fp16, [144]> const_131_to_fp16 = const()[name = tensor<string, []>("const_131_to_fp16"), val = tensor<fp16, [144]>(BLOBFILE(path = tensor<string, []>("@model_path/weights/weight.bin"), offset = tensor<uint64, []>(367680)))];
            tensor<fp16, [1, 144, 1, 1]> functional_1_MobileNetV3Small_1_Add_5_cast_fp16 = conv(bias = const_131_to_fp16, dilations = functional_1_MobileNetV3Small_1_expanded_conv_7_squeeze_excite_conv_1_2_convolutionx_dilations_0, groups = functional_1_MobileNetV3Small_1_expanded_conv_7_squeeze_excite_conv_1_2_convolutionx_groups_0, pad = functional_1_MobileNetV3Small_1_expanded_conv_7_squeeze_excite_conv_1_2_convolutionx_pad_0, pad_type = functional_1_MobileNetV3Small_1_expanded_conv_7_squeeze_excite_conv_1_2_convolutionx_pad_type_0, strides = functional_1_MobileNetV3Small_1_expanded_conv_7_squeeze_excite_conv_1_2_convolutionx_strides_0, weight = transpose_68_to_fp16, x = functional_1_MobileNetV3Small_1_expanded_conv_7_squeeze_excite_relu_1_Relu_cast_fp16)[name = tensor<string, []>("functional_1_MobileNetV3Small_1_Add_5_cast_fp16")];
            tensor<fp16, [1, 144, 1, 1]> functional_1_MobileNetV3Small_1_re_lu_10_1_Relu6_cast_fp16 = relu6(x = functional_1_MobileNetV3Small_1_Add_5_cast_fp16)[name = tensor<string, []>("functional_1_MobileNetV3Small_1_re_lu_10_1_Relu6_cast_fp16")];
            tensor<fp16, []> functional_1_MobileNetV3Small_1_Const_11_to_fp16 = const()[name = tensor<string, []>("functional_1_MobileNetV3Small_1_Const_11_to_fp16"), val = tensor<fp16, []>(0x1.554p-3)];
            tensor<fp16, [1, 144, 1, 1]> functional_1_MobileNetV3Small_1_Mul_5_cast_fp16 = mul(x = functional_1_MobileNetV3Small_1_re_lu_10_1_Relu6_cast_fp16, y = functional_1_MobileNetV3Small_1_Const_11_to_fp16)[name = tensor<string, []>("functional_1_MobileNetV3Small_1_Mul_5_cast_fp16")];
            tensor<fp16, [1, 144, 14, 14]> functional_1_MobileNetV3Small_1_expanded_conv_7_squeeze_excite_mul_1_Mul_cast_fp16 = mul(x = functional_1_MobileNetV3Small_1_activation_10_1_mul_cast_fp16, y = functional_1_MobileNetV3Small_1_Mul_5_cast_fp16)[name = tensor<string, []>("functional_1_MobileNetV3Small_1_expanded_conv_7_squeeze_excite_mul_1_Mul_cast_fp16")];
            tensor<string, []> functional_1_MobileNetV3Small_1_expanded_conv_7_project_bn_1_batchnorm_mul_1x_pad_type_0 = const()[name = tensor<string, []>("functional_1_MobileNetV3Small_1_expanded_conv_7_project_bn_1_batchnorm_mul_1x_pad_type_0"), val = tensor<string, []>("same")];
            tensor<int32, [2]> functional_1_MobileNetV3Small_1_expanded_conv_7_project_bn_1_batchnorm_mul_1x_strides_0 = const()[name = tensor<string, []>("functional_1_MobileNetV3Small_1_expanded_conv_7_project_bn_1_batchnorm_mul_1x_strides_0"), val = tensor<int32, [2]>([1, 1])];
            tensor<int32, [2]> functional_1_MobileNetV3Small_1_expanded_conv_7_project_bn_1_batchnorm_mul_1x_dilations_0 = const()[name = tensor<string, []>("functional_1_MobileNetV3Small_1_expanded_conv_7_project_bn_1_batchnorm_mul_1x_dilations_0"), val = tensor<int32, [2]>([1, 1])];
            tensor<int32, []> functional_1_MobileNetV3Small_1_expanded_conv_7_project_bn_1_batchnorm_mul_1x_groups_0 = const()[name = tensor<string, []>("functional_1_MobileNetV3Small_1_expanded_conv_7_project_bn_1_batchnorm_mul_1x_groups_0"), val = tensor<int32, []>(1)];
            tensor<int32, [4]> functional_1_MobileNetV3Small_1_expanded_conv_7_project_bn_1_batchnorm_mul_1x_pad_0 = const()[name = tensor<string, []>("functional_1_MobileNetV3Small_1_expanded_conv_7_project_bn_1_batchnorm_mul_1x_pad_0"), val = tensor<int32, [4]>([0, 0, 0, 0])];
            tensor<fp16, [48, 144, 1, 1]> transpose_70_to_fp16 = const()[name = tensor<string, []>("transpose_70_to_fp16"), val = tensor<fp16, [48, 144, 1, 1]>(BLOBFILE(path = tensor<string, []>("@model_path/weights/weight.bin"), offset = tensor<uint64, []>(368064)))];
            tensor<fp16, [48]> const_110_to_fp16 = const()[name = tensor<string, []>("const_110_to_fp16"), val = tensor<fp16, [48]>(BLOBFILE(path = tensor<string, []>("@model_path/weights/weight.bin"), offset = tensor<uint64, []>(381952)))];
            tensor<fp16, [1, 48, 14, 14]> functional_1_MobileNetV3Small_1_expanded_conv_7_project_bn_1_batchnorm_add_1_cast_fp16 = conv(bias = const_110_to_fp16, dilations = functional_1_MobileNetV3Small_1_expanded_conv_7_project_bn_1_batchnorm_mul_1x_dilations_0, groups = functional_1_MobileNetV3Small_1_expanded_conv_7_project_bn_1_batchnorm_mul_1x_groups_0, pad = functional_1_MobileNetV3Small_1_expanded_conv_7_project_bn_1_batchnorm_mul_1x_pad_0, pad_type = functional_1_MobileNetV3Small_1_expanded_conv_7_project_bn_1_batchnorm_mul_1x_pad_type_0, strides = functional_1_MobileNetV3Small_1_expanded_conv_7_project_bn_1_batchnorm_mul_1x_strides_0, weight = transpose_70_to_fp16, x = functional_1_MobileNetV3Small_1_expanded_conv_7_squeeze_excite_mul_1_Mul_cast_fp16)[name = tensor<string, []>("functional_1_MobileNetV3Small_1_expanded_conv_7_project_bn_1_batchnorm_add_1_cast_fp16")];
            tensor<fp16, [1, 48, 14, 14]> functional_1_MobileNetV3Small_1_expanded_conv_7_add_1_Add_cast_fp16 = add(x = functional_1_MobileNetV3Small_1_expanded_conv_6_project_bn_1_batchnorm_add_1_cast_fp16, y = functional_1_MobileNetV3Small_1_expanded_conv_7_project_bn_1_batchnorm_add_1_cast_fp16)[name = tensor<string, []>("functional_1_MobileNetV3Small_1_expanded_conv_7_add_1_Add_cast_fp16")];
            tensor<string, []> functional_1_MobileNetV3Small_1_expanded_conv_8_expand_bn_1_batchnorm_mul_1x_pad_type_0 = const()[name = tensor<string, []>("functional_1_MobileNetV3Small_1_expanded_conv_8_expand_bn_1_batchnorm_mul_1x_pad_type_0"), val = tensor<string, []>("same")];
            tensor<int32, [2]> functional_1_MobileNetV3Small_1_expanded_conv_8_expand_bn_1_batchnorm_mul_1x_strides_0 = const()[name = tensor<string, []>("functional_1_MobileNetV3Small_1_expanded_conv_8_expand_bn_1_batchnorm_mul_1x_strides_0"), val = tensor<int32, [2]>([1, 1])];
            tensor<int32, [2]> functional_1_MobileNetV3Small_1_expanded_conv_8_expand_bn_1_batchnorm_mul_1x_dilations_0 = const()[name = tensor<string, []>("functional_1_MobileNetV3Small_1_expanded_conv_8_expand_bn_1_batchnorm_mul_1x_dilations_0"), val = tensor<int32, [2]>([1, 1])];
            tensor<int32, []> functional_1_MobileNetV3Small_1_expanded_conv_8_expand_bn_1_batchnorm_mul_1x_groups_0 = const()[name = tensor<string, []>("functional_1_MobileNetV3Small_1_expanded_conv_8_expand_bn_1_batchnorm_mul_1x_groups_0"), val = tensor<int32, []>(1)];
            tensor<int32, [4]> functional_1_MobileNetV3Small_1_expanded_conv_8_expand_bn_1_batchnorm_mul_1x_pad_0 = const()[name = tensor<string, []>("functional_1_MobileNetV3Small_1_expanded_conv_8_expand_bn_1_batchnorm_mul_1x_pad_0"), val = tensor<int32, [4]>([0, 0, 0, 0])];
            tensor<fp16, [288, 48, 1, 1]> transpose_72_to_fp16 = const()[name = tensor<string, []>("transpose_72_to_fp16"), val = tensor<fp16, [288, 48, 1, 1]>(BLOBFILE(path = tensor<string, []>("@model_path/weights/weight.bin"), offset = tensor<uint64, []>(382144)))];
            tensor<fp16, [288]> const_111_to_fp16 = const()[name = tensor<string, []>("const_111_to_fp16"), val = tensor<fp16, [288]>(BLOBFILE(path = tensor<string, []>("@model_path/weights/weight.bin"), offset = tensor<uint64, []>(409856)))];
            tensor<fp16, [1, 288, 14, 14]> functional_1_MobileNetV3Small_1_expanded_conv_8_expand_bn_1_batchnorm_add_1_cast_fp16 = conv(bias = const_111_to_fp16, dilations = functional_1_MobileNetV3Small_1_expanded_conv_8_expand_bn_1_batchnorm_mul_1x_dilations_0, groups = functional_1_MobileNetV3Small_1_expanded_conv_8_expand_bn_1_batchnorm_mul_1x_groups_0, pad = functional_1_MobileNetV3Small_1_expanded_conv_8_expand_bn_1_batchnorm_mul_1x_pad_0, pad_type = functional_1_MobileNetV3Small_1_expanded_conv_8_expand_bn_1_batchnorm_mul_1x_pad_type_0, strides = functional_1_MobileNetV3Small_1_expanded_conv_8_expand_bn_1_batchnorm_mul_1x_strides_0, weight = transpose_72_to_fp16, x = functional_1_MobileNetV3Small_1_expanded_conv_7_add_1_Add_cast_fp16)[name = tensor<string, []>("functional_1_MobileNetV3Small_1_expanded_conv_8_expand_bn_1_batchnorm_add_1_cast_fp16")];
            tensor<fp16, []> functional_1_MobileNetV3Small_1_activation_11_1_Const_to_fp16 = const()[name = tensor<string, []>("functional_1_MobileNetV3Small_1_activation_11_1_Const_to_fp16"), val = tensor<fp16, []>(0x1.8p+1)];
            tensor<fp16, [1, 288, 14, 14]> functional_1_MobileNetV3Small_1_activation_11_1_add_cast_fp16 = add(x = functional_1_MobileNetV3Small_1_expanded_conv_8_expand_bn_1_batchnorm_add_1_cast_fp16, y = functional_1_MobileNetV3Small_1_activation_11_1_Const_to_fp16)[name = tensor<string, []>("functional_1_MobileNetV3Small_1_activation_11_1_add_cast_fp16")];
            tensor<fp16, [1, 288, 14, 14]> functional_1_MobileNetV3Small_1_activation_11_1_Relu6_cast_fp16 = relu6(x = functional_1_MobileNetV3Small_1_activation_11_1_add_cast_fp16)[name = tensor<string, []>("functional_1_MobileNetV3Small_1_activation_11_1_Relu6_cast_fp16")];
            tensor<fp16, []> ConstantFolding_functional_1_MobileNetV3Small_1_activation_11_1_truediv_recip_to_fp16 = const()[name = tensor<string, []>("ConstantFolding_functional_1_MobileNetV3Small_1_activation_11_1_truediv_recip_to_fp16"), val = tensor<fp16, []>(0x1.554p-3)];
            tensor<fp16, [1, 288, 14, 14]> functional_1_MobileNetV3Small_1_activation_11_1_truediv_cast_fp16 = mul(x = functional_1_MobileNetV3Small_1_activation_11_1_Relu6_cast_fp16, y = ConstantFolding_functional_1_MobileNetV3Small_1_activation_11_1_truediv_recip_to_fp16)[name = tensor<string, []>("functional_1_MobileNetV3Small_1_activation_11_1_truediv_cast_fp16")];
            tensor<fp16, [1, 288, 14, 14]> functional_1_MobileNetV3Small_1_activation_11_1_mul_cast_fp16 = mul(x = functional_1_MobileNetV3Small_1_expanded_conv_8_expand_bn_1_batchnorm_add_1_cast_fp16, y = functional_1_MobileNetV3Small_1_activation_11_1_truediv_cast_fp16)[name = tensor<string, []>("functional_1_MobileNetV3Small_1_activation_11_1_mul_cast_fp16")];
            tensor<string, []> pad_3_mode_0 = const()[name = tensor<string, []>("pad_3_mode_0"), val = tensor<string, []>("constant")];
            tensor<int32, [8]> pad_7_pad_0 = const()[name = tensor<string, []>("pad_7_pad_0"), val = tensor<int32, [8]>([0, 0, 0, 0, 1, 2, 1, 2])];
            tensor<fp16, []> const_3_to_fp16 = const()[name = tensor<string, []>("const_3_to_fp16"), val = tensor<fp16, []>(0x0p+0)];
            tensor<fp16, [1, 288, 17, 17]> pad_7_cast_fp16 = pad(constant_val = const_3_to_fp16, mode = pad_3_mode_0, pad = pad_7_pad_0, x = functional_1_MobileNetV3Small_1_activation_11_1_mul_cast_fp16)[name = tensor<string, []>("pad_7_cast_fp16")];
            tensor<string, []> functional_1_MobileNetV3Small_1_expanded_conv_8_depthwise_1_depthwisex_pad_type_0 = const()[name = tensor<string, []>("functional_1_MobileNetV3Small_1_expanded_conv_8_depthwise_1_depthwisex_pad_type_0"), val = tensor<string, []>("valid")];
            tensor<int32, [2]> functional_1_MobileNetV3Small_1_expanded_conv_8_depthwise_1_depthwisex_strides_0 = const()[name = tensor<string, []>("functional_1_MobileNetV3Small_1_expanded_conv_8_depthwise_1_depthwisex_strides_0"), val = tensor<int32, [2]>([2, 2])];
            tensor<int32, [2]> functional_1_MobileNetV3Small_1_expanded_conv_8_depthwise_1_depthwisex_dilations_0 = const()[name = tensor<string, []>("functional_1_MobileNetV3Small_1_expanded_conv_8_depthwise_1_depthwisex_dilations_0"), val = tensor<int32, [2]>([1, 1])];
            tensor<int32, []> functional_1_MobileNetV3Small_1_expanded_conv_8_depthwise_1_depthwisex_groups_0 = const()[name = tensor<string, []>("functional_1_MobileNetV3Small_1_expanded_conv_8_depthwise_1_depthwisex_groups_0"), val = tensor<int32, []>(288)];
            tensor<int32, [4]> functional_1_MobileNetV3Small_1_expanded_conv_8_depthwise_1_depthwisex_pad_0 = const()[name = tensor<string, []>("functional_1_MobileNetV3Small_1_expanded_conv_8_depthwise_1_depthwisex_pad_0"), val = tensor<int32, [4]>([0, 0, 0, 0])];
            tensor<fp16, [288, 1, 5, 5]> functional_1_MobileNetV3Small_1_expanded_conv_8_depthwise_bn_1_batchnorm_mul_1_weight_0_to_fp16 = const()[name = tensor<string, []>("functional_1_MobileNetV3Small_1_expanded_conv_8_depthwise_bn_1_batchnorm_mul_1_weight_0_to_fp16"), val = tensor<fp16, [288, 1, 5, 5]>(BLOBFILE(path = tensor<string, []>("@model_path/weights/weight.bin"), offset = tensor<uint64, []>(410496)))];
            tensor<fp16, [288]> const_112_to_fp16 = const()[name = tensor<string, []>("const_112_to_fp16"), val = tensor<fp16, [288]>(BLOBFILE(path = tensor<string, []>("@model_path/weights/weight.bin"), offset = tensor<uint64, []>(424960)))];
…
            tensor<fp16, [96, 288, 1, 1]> transpose_80_to_fp16 = const()[name = tensor<string, []>("transpose_80_to_fp16"), val = tensor<fp16, [96, 288, 1, 1]>(BLOBFILE(path = tensor<string, []>("@model_path/weights/weight.bin"), offset = tensor<uint64, []>(509568)))];
            tensor<fp16, [96]> const_115_to_fp16 = const()[name = tensor<string, []>("const_115_to_fp16"), val = tensor<fp16, [96]>(BLOBFILE(path = tensor<string, []>("@model_path/weights/weight.bin"), offset = tensor<uint64, []>(564928)))];
            tensor<fp16, [1, 96, 7, 7]> functional_1_MobileNetV3Small_1_expanded_conv_8_project_bn_1_batchnorm_add_1_cast_fp16 = conv(bias = const_115_to_fp16, dilations = functional_1_MobileNetV3Small_1_expanded_conv_8_project_bn_1_batchnorm_mul_1x_dilations_0, groups = functional_1_MobileNetV3Small_1_expanded_conv_8_project_bn_1_batchnorm_mul_1x_groups_0, pad = functional_1_MobileNetV3Small_1_expanded_conv_8_project_bn_1_batchnorm_mul_1x_pad_0, pad_type = functional_1_MobileNetV3Small_1_expanded_conv_8_project_bn_1_batchnorm_mul_1x_pad_type_0, strides = functional_1_MobileNetV3Small_1_expanded_conv_8_project_bn_1_batchnorm_mul_1x_strides_0, weight = transpose_80_to_fp16, x = functional_1_MobileNetV3Small_1_expanded_conv_8_squeeze_excite_mul_1_Mul_cast_fp16)[name = tensor<string, []>("functional_1_MobileNetV3Small_1_expanded_conv_8_project_bn_1_batchnorm_add_1_cast_fp16")];
            tensor<string, []> functional_1_MobileNetV3Small_1_expanded_conv_9_expand_bn_1_batchnorm_mul_1x_pad_type_0 = const()[name = tensor<string, []>("functional_1_MobileNetV3Small_1_expanded_conv_9_expand_bn_1_batchnorm_mul_1x_pad_type_0"), val = tensor<string, []>("same")];
            tensor<int32, [2]> functional_1_MobileNetV3Small_1_expanded_conv_9_expand_bn_1_batchnorm_mul_1x_strides_0 = const()[name = tensor<string, []>("functional_1_MobileNetV3Small_1_expanded_conv_9_expand_bn_1_batchnorm_mul_1x_strides_0"), val = tensor<int32, [2]>([1, 1])];
            tensor<int32, [2]> functional_1_MobileNetV3Small_1_expanded_conv_9_expand_bn_1_batchnorm_mul_1x_dilations_0 = const()[name = tensor<string, []>("functional_1_MobileNetV3Small_1_expanded_conv_9_expand_bn_1_batchnorm_mul_1x_dilations_0"), val = tensor<int32, [2]>([1, 1])];
            tensor<int32, []> functional_1_MobileNetV3Small_1_expanded_conv_9_expand_bn_1_batchnorm_mul_1x_groups_0 = const()[name = tensor<string, []>("functional_1_MobileNetV3Small_1_expanded_conv_9_expand_bn_1_batchnorm_mul_1x_groups_0"), val = tensor<int32, []>(1)];
            tensor<int32, [4]> functional_1_MobileNetV3Small_1_expanded_conv_9_expand_bn_1_batchnorm_mul_1x_pad_0 = const()[name = tensor<string, []>("functional_1_MobileNetV3Small_1_expanded_conv_9_expand_bn_1_batchnorm_mul_1x_pad_0"), val = tensor<int32, [4]>([0, 0, 0, 0])];
            tensor<fp16, [576, 96, 1, 1]> transpose_82_to_fp16 = const()[name = tensor<string, []>("transpose_82_to_fp16"), val = tensor<fp16, [576, 96, 1, 1]>(BLOBFILE(path = tensor<string, []>("@model_path/weights/weight.bin"), offset = tensor<uint64, []>(565184)))];
            tensor<fp16, [576]> const_116_to_fp16 = const()[name = tensor<string, []>("const_116_to_fp16"), val = tensor<fp16, [576]>(BLOBFILE(path = tensor<string, []>("@model_path/weights/weight.bin"), offset = tensor<uint64, []>(675840)))];
            tensor<fp16, [1, 576, 7, 7]> functional_1_MobileNetV3Small_1_expanded_conv_9_expand_bn_1_batchnorm_add_1_cast_fp16 = conv(bias = const_116_to_fp16, dilations = functional_1_MobileNetV3Small_1_expanded_conv_9_expand_bn_1_batchnorm_mul_1x_dilations_0, groups = functional_1_MobileNetV3Small_1_expanded_conv_9_expand_bn_1_batchnorm_mul_1x_groups_0, pad = functional_1_MobileNetV3Small_1_expanded_conv_9_expand_bn_1_batchnorm_mul_1x_pad_0, pad_type = functional_1_MobileNetV3Small_1_expanded_conv_9_expand_bn_1_batchnorm_mul_1x_pad_type_0, strides = functional_1_MobileNetV3Small_1_expanded_conv_9_expand_bn_1_batchnorm_mul_1x_strides_0, weight = transpose_82_to_fp16, x = functional_1_MobileNetV3Small_1_expanded_conv_8_project_bn_1_batchnorm_add_1_cast_fp16)[name = tensor<string, []>("functional_1_MobileNetV3Small_1_expanded_conv_9_expand_bn_1_batchnorm_add_1_cast_fp16")];
            tensor<fp16, []> functional_1_MobileNetV3Small_1_activation_13_1_Const_to_fp16 = const()[name = tensor<string, []>("functional_1_MobileNetV3Small_1_activation_13_1_Const_to_fp16"), val = tensor<fp16, []>(0x1.8p+1)];
            tensor<fp16, [1, 576, 7, 7]> functional_1_MobileNetV3Small_1_activation_13_1_add_cast_fp16 = add(x = functional_1_MobileNetV3Small_1_expanded_conv_9_expand_bn_1_batchnorm_add_1_cast_fp16, y = functional_1_MobileNetV3Small_1_activation_13_1_Const_to_fp16)[name = tensor<string, []>("functional_1_MobileNetV3Small_1_activation_13_1_add_cast_fp16")];
            tensor<fp16, [1, 576, 7, 7]> functional_1_MobileNetV3Small_1_activation_13_1_Relu6_cast_fp16 = relu6(x = functional_1_MobileNetV3Small_1_activation_13_1_add_cast_fp16)[name = tensor<string, []>("functional_1_MobileNetV3Small_1_activation_13_1_Relu6_cast_fp16")];
            tensor<fp16, []> ConstantFolding_functional_1_MobileNetV3Small_1_activation_13_1_truediv_recip_to_fp16 = const()[name = tensor<string, []>("ConstantFolding_functional_1_MobileNetV3Small_1_activation_13_1_truediv_recip_to_fp16"), val = tensor<fp16, []>(0x1.554p-3)];
            tensor<fp16, [1, 576, 7, 7]> functional_1_MobileNetV3Small_1_activation_13_1_truediv_cast_fp16 = mul(x = functional_1_MobileNetV3Small_1_activation_13_1_Relu6_cast_fp16, y = ConstantFolding_functional_1_MobileNetV3Small_1_activation_13_1_truediv_recip_to_fp16)[name = tensor<string, []>("functional_1_MobileNetV3Small_1_activation_13_1_truediv_cast_fp16")];
            tensor<fp16, [1, 576, 7, 7]> functional_1_MobileNetV3Small_1_activation_13_1_mul_cast_fp16 = mul(x = functional_1_MobileNetV3Small_1_expanded_conv_9_expand_bn_1_batchnorm_add_1_cast_fp16, y = functional_1_MobileNetV3Small_1_activation_13_1_truediv_cast_fp16)[name = tensor<string, []>("functional_1_MobileNetV3Small_1_activation_13_1_mul_cast_fp16")];
            tensor<string, []> functional_1_MobileNetV3Small_1_expanded_conv_9_depthwise_1_depthwisex_pad_type_0 = const()[name = tensor<string, []>("functional_1_MobileNetV3Small_1_expanded_conv_9_depthwise_1_depthwisex_pad_type_0"), val = tensor<string, []>("same")];
            tensor<int32, [2]> functional_1_MobileNetV3Small_1_expanded_conv_9_depthwise_1_depthwisex_strides_0 = const()[name = tensor<string, []>("functional_1_MobileNetV3Small_1_expanded_conv_9_depthwise_1_depthwisex_strides_0"), val = tensor<int32, [2]>([1, 1])];
            tensor<int32, [2]> functional_1_MobileNetV3Small_1_expanded_conv_9_depthwise_1_depthwisex_dilations_0 = const()[name = tensor<string, []>("functional_1_MobileNetV3Small_1_expanded_conv_9_depthwise_1_depthwisex_dilations_0"), val = tensor<int32, [2]>([1, 1])];
            tensor<int32, []> functional_1_MobileNetV3Small_1_expanded_conv_9_depthwise_1_depthwisex_groups_0 = const()[name = tensor<string, []>("functional_1_MobileNetV3Small_1_expanded_conv_9_depthwise_1_depthwisex_groups_0"), val = tensor<int32, []>(576)];
            tensor<int32, [4]> functional_1_MobileNetV3Small_1_expanded_conv_9_depthwise_1_depthwisex_pad_0 = const()[name = tensor<string, []>("functional_1_MobileNetV3Small_1_expanded_conv_9_depthwise_1_depthwisex_pad_0"), val = tensor<int32, [4]>([0, 0, 0, 0])];
            tensor<fp16, [576, 1, 5, 5]> functional_1_MobileNetV3Small_1_expanded_conv_9_depthwise_bn_1_batchnorm_mul_1_weight_0_to_fp16 = const()[name = tensor<string, []>("functional_1_MobileNetV3Small_1_expanded_conv_9_depthwise_bn_1_batchnorm_mul_1_weight_0_to_fp16"), val = tensor<fp16, [576, 1, 5, 5]>(BLOBFILE(path = tensor<string, []>("@model_path/weights/weight.bin"), offset = tensor<uint64, []>(677056)))];
            tensor<fp16, [576]> const_117_to_fp16 = const()[name = tensor<string, []>("const_117_to_fp16"), val = tensor<fp16, [576]>(BLOBFILE(path = tensor<string, []>("@model_path/weights/weight.bin"), offset = tensor<uint64, []>(705920)))];
            tensor<fp16, [1, 576, 7, 7]> functional_1_MobileNetV3Small_1_expanded_conv_9_depthwise_bn_1_batchnorm_add_1_cast_fp16 = conv(bias = const_117_to_fp16, dilations = functional_1_MobileNetV3Small_1_expanded_conv_9_depthwise_1_depthwisex_dilations_0, groups = functional_1_MobileNetV3Small_1_expanded_conv_9_depthwise_1_depthwisex_groups_0, pad = functional_1_MobileNetV3Small_1_expanded_conv_9_depthwise_1_depthwisex_pad_0, pad_type = functional_1_MobileNetV3Small_1_expanded_conv_9_depthwise_1_depthwisex_pad_type_0, strides = functional_1_MobileNetV3Small_1_expanded_conv_9_depthwise_1_depthwisex_strides_0, weight = functional_1_MobileNetV3Small_1_expanded_conv_9_depthwise_bn_1_batchnorm_mul_1_weight_0_to_fp16, x = functional_1_MobileNetV3Small_1_activation_13_1_mul_cast_fp16)[name = tensor<string, []>("functional_1_MobileNetV3Small_1_expanded_conv_9_depthwise_bn_1_batchnorm_add_1_cast_fp16")];
            tensor<fp16, []> functional_1_MobileNetV3Small_1_activation_14_1_Const_to_fp16 = const()[name = tensor<string, []>("functional_1_MobileNetV3Small_1_activation_14_1_Const_to_fp16"), val = tensor<fp16, []>(0x1.8p+1)];
            tensor<fp16, [1, 576, 7, 7]> functional_1_MobileNetV3Small_1_activation_14_1_add_cast_fp16 = add(x = functional_1_MobileNetV3Small_1_expanded_conv_9_depthwise_bn_1_batchnorm_add_1_cast_fp16, y = functional_1_MobileNetV3Small_1_activation_14_1_Const_to_fp16)[name = tensor<string, []>("functional_1_MobileNetV3Small_1_activation_14_1_add_cast_fp16")];
            tensor<fp16, [1, 576, 7, 7]> functional_1_MobileNetV3Small_1_activation_14_1_Relu6_cast_fp16 = relu6(x = functional_1_MobileNetV3Small_1_activation_14_1_add_cast_fp16)[name = tensor<string, []>("functional_1_MobileNetV3Small_1_activation_14_1_Relu6_cast_fp16")];
            tensor<fp16, []> ConstantFolding_functional_1_MobileNetV3Small_1_activation_14_1_truediv_recip_to_fp16 = const()[name = tensor<string, []>("ConstantFolding_functional_1_MobileNetV3Small_1_activation_14_1_truediv_recip_to_fp16"), val = tensor<fp16, []>(0x1.554p-3)];
            tensor<fp16, [1, 576, 7, 7]> functional_1_MobileNetV3Small_1_activation_14_1_truediv_cast_fp16 = mul(x = functional_1_MobileNetV3Small_1_activation_14_1_Relu6_cast_fp16, y = ConstantFolding_functional_1_MobileNetV3Small_1_activation_14_1_truediv_recip_to_fp16)[name = tensor<string, []>("functional_1_MobileNetV3Small_1_activation_14_1_truediv_cast_fp16")];
            tensor<fp16, [1, 576, 7, 7]> functional_1_MobileNetV3Small_1_activation_14_1_mul_cast_fp16 = mul(x = functional_1_MobileNetV3Small_1_expanded_conv_9_depthwise_bn_1_batchnorm_add_1_cast_fp16, y = functional_1_MobileNetV3Small_1_activation_14_1_truediv_cast_fp16)[name = tensor<string, []>("functional_1_MobileNetV3Small_1_activation_14_1_mul_cast_fp16")];
            tensor<bool, []> functional_1_MobileNetV3Small_1_expanded_conv_9_squeeze_excite_avg_pool_1_Mean_keep_dims_0 = const()[name = tensor<string, []>("functional_1_MobileNetV3Small_1_expanded_conv_9_squeeze_excite_avg_pool_1_Mean_keep_dims_0"), val = tensor<bool, []>(true)];
            tensor<int32, [2]> const_64 = const()[name = tensor<string, []>("const_64"), val = tensor<int32, [2]>([2, 3])];
            tensor<fp16, [1, 576, 1, 1]> functional_1_MobileNetV3Small_1_expanded_conv_9_squeeze_excite_avg_pool_1_Mean_cast_fp16 = reduce_mean(axes = const_64, keep_dims = functional_1_MobileNetV3Small_1_expanded_conv_9_squeeze_excite_avg_pool_1_Mean_keep_dims_0, x = functional_1_MobileNetV3Small_1_activation_14_1_mul_cast_fp16)[name = tensor<string, []>("functional_1_MobileNetV3Small_1_expanded_conv_9_squeeze_excite_avg_pool_1_Mean_cast_fp16")];
            tensor<string, []> functional_1_MobileNetV3Small_1_expanded_conv_9_squeeze_excite_conv_1_convolutionx_pad_type_0 = const()[name = tensor<string, []>("functional_1_MobileNetV3Small_1_expanded_conv_9_squeeze_excite_conv_1_convolutionx_pad_type_0"), val = tensor<string, []>("same")];
            tensor<int32, [2]> functional_1_MobileNetV3Small_1_expanded_conv_9_squeeze_excite_conv_1_convolutionx_strides_0 = const()[name = tensor<string, []>("functional_1_MobileNetV3Small_1_expanded_conv_9_squeeze_excite_conv_1_convolutionx_strides_0"), val = tensor<int32, [2]>([1, 1])];
            tensor<int32, [2]> functional_1_MobileNetV3Small_1_expanded_conv_9_squeeze_excite_conv_1_convolutionx_dilations_0 = const()[name = tensor<string, []>("functional_1_MobileNetV3Small_1_expanded_conv_9_squeeze_excite_conv_1_convolutionx_dilations_0"), val = tensor<int32, [2]>([1, 1])];
            tensor<int32, []> functional_1_MobileNetV3Small_1_expanded_conv_9_squeeze_excite_conv_1_convolutionx_groups_0 = const()[name = tensor<string, []>("functional_1_MobileNetV3Small_1_expanded_conv_9_squeeze_excite_conv_1_convolutionx_groups_0"), val = tensor<int32, []>(1)];
            tensor<int32, [4]> functional_1_MobileNetV3Small_1_expanded_conv_9_squeeze_excite_conv_1_convolutionx_pad_0 = const()[name = tensor<string, []>("functional_1_MobileNetV3Small_1_expanded_conv_9_squeeze_excite_conv_1_convolutionx_pad_0"), val = tensor<int32, [4]>([0, 0, 0, 0])];
            tensor<fp16, [144, 576, 1, 1]> transpose_86_to_fp16 = const()[name = tensor<string, []>("transpose_86_to_fp16"), val = tensor<fp16, [144, 576, 1, 1]>(BLOBFILE(path = tensor<string, []>("@model_path/weights/weight.bin"), offset = tensor<uint64, []>(707136)))];
            tensor<fp16, [144]> const_118_to_fp16 = const()[name = tensor<string, []>("const_118_to_fp16"), val = tensor<fp16, [144]>(BLOBFILE(path = tensor<string, []>("@model_path/weights/weight.bin"), offset = tensor<uint64, []>(873088)))];
            tensor<fp16, [1, 144, 1, 1]> functional_1_MobileNetV3Small_1_expanded_conv_9_squeeze_excite_conv_1_BiasAdd_cast_fp16 = conv(bias = const_118_to_fp16, dilations = functional_1_MobileNetV3Small_1_expanded_conv_9_squeeze_excite_conv_1_convolutionx_dilations_0, groups = functional_1_MobileNetV3Small_1_expanded_conv_9_squeeze_excite_conv_1_convolutionx_groups_0, pad = functional_1_MobileNetV3Small_1_expanded_conv_9_squeeze_excite_conv_1_convolutionx_pad_0, pad_type = functional_1_MobileNetV3Small_1_expanded_conv_9_squeeze_excite_conv_1_convolutionx_pad_type_0, strides = functional_1_MobileNetV3Small_1_expanded_conv_9_squeeze_excite_conv_1_convolutionx_strides_0, weight = transpose_86_to_fp16, x = functional_1_MobileNetV3Small_1_expanded_conv_9_squeeze_excite_avg_pool_1_Mean_cast_fp16)[name = tensor<string, []>("functional_1_MobileNetV3Small_1_expanded_conv_9_squeeze_excite_conv_1_BiasAdd_cast_fp16")];
            tensor<fp16, [1, 144, 1, 1]> functional_1_MobileNetV3Small_1_expanded_conv_9_squeeze_excite_relu_1_Relu_cast_fp16 = relu(x = functional_1_MobileNetV3Small_1_expanded_conv_9_squeeze_excite_conv_1_BiasAdd_cast_fp16)[name = tensor<string, []>("functional_1_MobileNetV3Small_1_expanded_conv_9_squeeze_excite_relu_1_Relu_cast_fp16")];
            tensor<string, []> functional_1_MobileNetV3Small_1_expanded_conv_9_squeeze_excite_conv_1_2_convolutionx_pad_type_0 = const()[name = tensor<string, []>("functional_1_MobileNetV3Small_1_expanded_conv_9_squeeze_excite_conv_1_2_convolutionx_pad_type_0"), val = tensor<string, []>("same")];
            tensor<int32, [2]> functional_1_MobileNetV3Small_1_expanded_conv_9_squeeze_excite_conv_1_2_convolutionx_strides_0 = const()[name = tensor<string, []>("functional_1_MobileNetV3Small_1_expanded_conv_9_squeeze_excite_conv_1_2_convolutionx_strides_0"), val = tensor<int32, [2]>([1, 1])];
            tensor<int32, [2]> functional_1_MobileNetV3Small_1_expanded_conv_9_squeeze_excite_conv_1_2_convolutionx_dilations_0 = const()[name = tensor<string, []>("functional_1_MobileNetV3Small_1_expanded_conv_9_squeeze_excite_conv_1_2_convolutionx_dilations_0"), val = tensor<int32, [2]>([1, 1])];
            tensor<int32, []> functional_1_MobileNetV3Small_1_expanded_conv_9_squeeze_excite_conv_1_2_convolutionx_groups_0 = const()[name = tensor<string, []>("functional_1_MobileNetV3Small_1_expanded_conv_9_squeeze_excite_conv_1_2_convolutionx_groups_0"), val = tensor<int32, []>(1)];
            tensor<int32, [4]> functional_1_MobileNetV3Small_1_expanded_conv_9_squeeze_excite_conv_1_2_convolutionx_pad_0 = const()[name = tensor<string, []>("functional_1_MobileNetV3Small_1_expanded_conv_9_squeeze_excite_conv_1_2_convolutionx_pad_0"), val = tensor<int32, [4]>([0, 0, 0, 0])];
            tensor<fp16, [576, 144, 1, 1]> transpose_88_to_fp16 = const()[name = tensor<string, []>("transpose_88_to_fp16"), val = tensor<fp16, [576, 144, 1, 1]>(BLOBFILE(path = tensor<string, []>("@model_path/weights/weight.bin"), offset = tensor<uint64, []>(873472)))];
            tensor<fp16, [576]> const_133_to_fp16 = const()[name = tensor<string, []>("const_133_to_fp16"), val = tensor<fp16, [576]>(BLOBFILE(path = tensor<string, []>("@model_path/weights/weight.bin"), offset = tensor<uint64, []>(1039424)))];
            tensor<fp16, [1, 576, 1, 1]> functional_1_MobileNetV3Small_1_Add_7_cast_fp16 = conv(bias = const_133_to_fp16, dilations = functional_1_MobileNetV3Small_1_expanded_conv_9_squeeze_excite_conv_1_2_convolutionx_dilations_0, groups = functional_1_MobileNetV3Small_1_expanded_conv_9_squeeze_excite_conv_1_2_convolutionx_groups_0, pad = functional_1_MobileNetV3Small_1_expanded_conv_9_squeeze_excite_conv_1_2_convolutionx_pad_0, pad_type = functional_1_MobileNetV3Small_1_expanded_conv_9_squeeze_excite_conv_1_2_convolutionx_pad_type_0, strides = functional_1_MobileNetV3Small_1_expanded_conv_9_squeeze_excite_conv_1_2_convolutionx_strides_0, weight = transpose_88_to_fp16, x = functional_1_MobileNetV3Small_1_expanded_conv_9_squeeze_excite_relu_1_Relu_cast_fp16)[name = tensor<string, []>("functional_1_MobileNetV3Small_1_Add_7_cast_fp16")];
            tensor<fp16, [1, 576, 1, 1]> functional_1_MobileNetV3Small_1_re_lu_12_1_Relu6_cast_fp16 = relu6(x = functional_1_MobileNetV3Small_1_Add_7_cast_fp16)[name = tensor<string, []>("functional_1_MobileNetV3Small_1_re_lu_12_1_Relu6_cast_fp16")];
            tensor<fp16, []> functional_1_MobileNetV3Small_1_Const_15_to_fp16 = const()[name = tensor<string, []>("functional_1_MobileNetV3Small_1_Const_15_to_fp16"), val = tensor<fp16, []>(0x1.554p-3)];
            tensor<fp16, [1, 576, 1, 1]> functional_1_MobileNetV3Small_1_Mul_7_cast_fp16 = mul(x = functional_1_MobileNetV3Small_1_re_lu_12_1_Relu6_cast_fp16, y = functional_1_MobileNetV3Small_1_Const_15_to_fp16)[name = tensor<string, []>("functional_1_MobileNetV3Small_1_Mul_7_cast_fp16")];
            tensor<fp16, [1, 576, 7, 7]> functional_1_MobileNetV3Small_1_expanded_conv_9_squeeze_excite_mul_1_Mul_cast_fp16 = mul(x = functional_1_MobileNetV3Small_1_activation_14_1_mul_cast_fp16, y = functional_1_MobileNetV3Small_1_Mul_7_cast_fp16)[name = tensor<string, []>("functional_1_MobileNetV3Small_1_expanded_conv_9_squeeze_excite_mul_1_Mul_cast_fp16")];
            tensor<string, []> functional_1_MobileNetV3Small_1_expanded_conv_9_project_bn_1_batchnorm_mul_1x_pad_type_0 = const()[name = tensor<string, []>("functional_1_MobileNetV3Small_1_expanded_conv_9_project_bn_1_batchnorm_mul_1x_pad_type_0"), val = tensor<string, []>("same")];
            tensor<int32, [2]> functional_1_MobileNetV3Small_1_expanded_conv_9_project_bn_1_batchnorm_mul_1x_strides_0 = const()[name = tensor<string, []>("functional_1_MobileNetV3Small_1_expanded_conv_9_project_bn_1_batchnorm_mul_1x_strides_0"), val = tensor<int32, [2]>([1, 1])];
            tensor<int32, [2]> functional_1_MobileNetV3Small_1_expanded_conv_9_project_bn_1_batchnorm_mul_1x_dilations_0 = const()[name = tensor<string, []>("functional_1_MobileNetV3Small_1_expanded_conv_9_project_bn_1_batchnorm_mul_1x_dilations_0"), val = tensor<int32, [2]>([1, 1])];
            tensor<int32, []> functional_1_MobileNetV3Small_1_expanded_conv_9_project_bn_1_batchnorm_mul_1x_groups_0 = const()[name = tensor<string, []>("functional_1_MobileNetV3Small_1_expanded_conv_9_project_bn_1_batchnorm_mul_1x_groups_0"), val = tensor<int32, []>(1)];
            tensor<int32, [4]> functional_1_MobileNetV3Small_1_expanded_conv_9_project_bn_1_batchnorm_mul_1x_pad_0 = const()[name = tensor<string, []>("functional_1_MobileNetV3Small_1_expanded_conv_9_project_bn_1_batchnorm_mul_1x_pad_0"), val = tensor<int32, [4]>([0, 0, 0, 0])];
            tensor<fp16, [96, 576, 1, 1]> transpose_90_to_fp16 = const()[name = tensor<string, []>("transpose_90_to_fp16"), val = tensor<fp16, [96, 576, 1, 1]>(BLOBFILE(path = tensor<string, []>("@model_path/weights/weight.bin"), offset = tensor<uint64, []>(1040640)))];
            tensor<fp16, [96]> const_120_to_fp16 = const()[name = tensor<string, []>("const_120_to_fp16"), val = tensor<fp16, [96]>(BLOBFILE(path = tensor<string, []>("@model_path/weights/weight.bin"), offset = tensor<uint64, []>(1151296)))];
            tensor<fp16, [1, 96, 7, 7]> functional_1_MobileNetV3Small_1_expanded_conv_9_project_bn_1_batchnorm_add_1_cast_fp16 = conv(bias = const_120_to_fp16, dilations = functional_1_MobileNetV3Small_1_expanded_conv_9_project_bn_1_batchnorm_mul_1x_dilations_0, groups = functional_1_MobileNetV3Small_1_expanded_conv_9_project_bn_1_batchnorm_mul_1x_groups_0, pad = functional_1_MobileNetV3Small_1_expanded_conv_9_project_bn_1_batchnorm_mul_1x_pad_0, pad_type = functional_1_MobileNetV3Small_1_expanded_conv_9_project_bn_1_batchnorm_mul_1x_pad_type_0, strides = functional_1_MobileNetV3Small_1_expanded_conv_9_project_bn_1_batchnorm_mul_1x_strides_0, weight = transpose_90_to_fp16, x = functional_1_MobileNetV3Small_1_expanded_conv_9_squeeze_excite_mul_1_Mul_cast_fp16)[name = tensor<string, []>("functional_1_MobileNetV3Small_1_expanded_conv_9_project_bn_1_batchnorm_add_1_cast_fp16")];
            tensor<fp16, [1, 96, 7, 7]> functional_1_MobileNetV3Small_1_expanded_conv_9_add_1_Add_cast_fp16 = add(x = functional_1_MobileNetV3Small_1_expanded_conv_8_project_bn_1_batchnorm_add_1_cast_fp16, y = functional_1_MobileNetV3Small_1_expanded_conv_9_project_bn_1_batchnorm_add_1_cast_fp16)[name = tensor<string, []>("functional_1_MobileNetV3Small_1_expanded_conv_9_add_1_Add_cast_fp16")];
            tensor<string, []> functional_1_MobileNetV3Small_1_expanded_conv_10_expand_bn_1_batchnorm_mul_1x_pad_type_0 = const()[name = tensor<string, []>("functional_1_MobileNetV3Small_1_expanded_conv_10_expand_bn_1_batchnorm_mul_1x_pad_type_0"), val = tensor<string, []>("same")];
            tensor<int32, [2]> functional_1_MobileNetV3Small_1_expanded_conv_10_expand_bn_1_batchnorm_mul_1x_strides_0 = const()[name = tensor<string, []>("functional_1_MobileNetV3Small_1_expanded_conv_10_expand_bn_1_batchnorm_mul_1x_strides_0"), val = tensor<int32, [2]>([1, 1])];
            tensor<int32, [2]> functional_1_MobileNetV3Small_1_expanded_conv_10_expand_bn_1_batchnorm_mul_1x_dilations_0 = const()[name = tensor<string, []>("functional_1_MobileNetV3Small_1_expanded_conv_10_expand_bn_1_batchnorm_mul_1x_dilations_0"), val = tensor<int32, [2]>([1, 1])];
            tensor<int32, []> functional_1_MobileNetV3Small_1_expanded_conv_10_expand_bn_1_batchnorm_mul_1x_groups_0 = const()[name = tensor<string, []>("functional_1_MobileNetV3Small_1_expanded_conv_10_expand_bn_1_batchnorm_mul_1x_groups_0"), val = tensor<int32, []>(1)];
            tensor<int32, [4]> functional_1_MobileNetV3Small_1_expanded_conv_10_expand_bn_1_batchnorm_mul_1x_pad_0 = const()[name = tensor<string, []>("functional_1_MobileNetV3Small_1_expanded_conv_10_expand_bn_1_batchnorm_mul_1x_pad_0"), val = tensor<int32, [4]>([0, 0, 0, 0])];
            tensor<fp16, [576, 96, 1, 1]> transpose_92_to_fp16 = const()[name = tensor<string, []>("transpose_92_to_fp16"), val = tensor<fp16, [576, 96, 1, 1]>(BLOBFILE(path = tensor<string, []>("@model_path/weights/weight.bin"), offset = tensor<uint64, []>(1151552)))];
            tensor<fp16, [576]> const_121_to_fp16 = const()[name = tensor<string, []>("const_121_to_fp16"), val = tensor<fp16, [576]>(BLOBFILE(path = tensor<string, []>("@model_path/weights/weight.bin"), offset = tensor<uint64, []>(1262208)))];
            tensor<fp16, [1, 576, 7, 7]> functional_1_MobileNetV3Small_1_expanded_conv_10_expand_bn_1_batchnorm_add_1_cast_fp16 = conv(bias = const_121_to_fp16, dilations = functional_1_MobileNetV3Small_1_expanded_conv_10_expand_bn_1_batchnorm_mul_1x_dilations_0, groups = functional_1_MobileNetV3Small_1_expanded_conv_10_expand_bn_1_batchnorm_mul_1x_groups_0, pad = functional_1_MobileNetV3Small_1_expanded_conv_10_expand_bn_1_batchnorm_mul_1x_pad_0, pad_type = functional_1_MobileNetV3Small_1_expanded_conv_10_expand_bn_1_batchnorm_mul_1x_pad_type_0, strides = functional_1_MobileNetV3Small_1_expanded_conv_10_expand_bn_1_batchnorm_mul_1x_strides_0, weight = transpose_92_to_fp16, x = functional_1_MobileNetV3Small_1_expanded_conv_9_add_1_Add_cast_fp16)[name = tensor<string, []>("functional_1_MobileNetV3Small_1_expanded_conv_10_expand_bn_1_batchnorm_add_1_cast_fp16")];
            tensor<fp16, []> functional_1_MobileNetV3Small_1_activation_15_1_Const_to_fp16 = const()[name = tensor<string, []>("functional_1_MobileNetV3Small_1_activation_15_1_Const_to_fp16"), val = tensor<fp16, []>(0x1.8p+1)];
            tensor<fp16, [1, 576, 7, 7]> functional_1_MobileNetV3Small_1_activation_15_1_add_cast_fp16 = add(x = functional_1_MobileNetV3Small_1_expanded_conv_10_expand_bn_1_batchnorm_add_1_cast_fp16, y = functional_1_MobileNetV3Small_1_activation_15_1_Const_to_fp16)[name = tensor<string, []>("functional_1_MobileNetV3Small_1_activation_15_1_add_cast_fp16")];
            tensor<fp16, [1, 576, 7, 7]> functional_1_MobileNetV3Small_1_activation_15_1_Relu6_cast_fp16 = relu6(x = functional_1_MobileNetV3Small_1_activation_15_1_add_cast_fp16)[name = tensor<string, []>("functional_1_MobileNetV3Small_1_activation_15_1_Relu6_cast_fp16")];
            tensor<fp16, []> ConstantFolding_functional_1_MobileNetV3Small_1_activation_15_1_truediv_recip_to_fp16 = const()[name = tensor<string, []>("ConstantFolding_functional_1_MobileNetV3Small_1_activation_15_1_truediv_recip_to_fp16"), val = tensor<fp16, []>(0x1.554p-3)];
            tensor<fp16, [1, 576, 7, 7]> functional_1_MobileNetV3Small_1_activation_15_1_truediv_cast_fp16 = mul(x = functional_1_MobileNetV3Small_1_activation_15_1_Relu6_cast_fp16, y = ConstantFolding_functional_1_MobileNetV3Small_1_activation_15_1_truediv_recip_to_fp16)[name = tensor<string, []>("functional_1_MobileNetV3Small_1_activation_15_1_truediv_cast_fp16")];
            tensor<fp16, [1, 576, 7, 7]> functional_1_MobileNetV3Small_1_activation_15_1_mul_cast_fp16 = mul(x = functional_1_MobileNetV3Small_1_expanded_conv_10_expand_bn_1_batchnorm_add_1_cast_fp16, y = functional_1_MobileNetV3Small_1_activation_15_1_truediv_cast_fp16)[name = tensor<string, []>("functional_1_MobileNetV3Small_1_activation_15_1_mul_cast_fp16")];
            tensor<string, []> functional_1_MobileNetV3Small_1_expanded_conv_10_depthwise_1_depthwisex_pad_type_0 = const()[name = tensor<string, []>("functional_1_MobileNetV3Small_1_expanded_conv_10_depthwise_1_depthwisex_pad_type_0"), val = tensor<string, []>("same")];
            tensor<int32, [2]> functional_1_MobileNetV3Small_1_expanded_conv_10_depthwise_1_depthwisex_strides_0 = const()[name = tensor<string, []>("functional_1_MobileNetV3Small_1_expanded_conv_10_depthwise_1_depthwisex_strides_0"), val = tensor<int32, [2]>([1, 1])];
            tensor<int32, [2]> functional_1_MobileNetV3Small_1_expanded_conv_10_depthwise_1_depthwisex_dilations_0 = const()[name = tensor<string, []>("functional_1_MobileNetV3Small_1_expanded_conv_10_depthwise_1_depthwisex_dilations_0"), val = tensor<int32, [2]>([1, 1])];
            tensor<int32, []> functional_1_MobileNetV3Small_1_expanded_conv_10_depthwise_1_depthwisex_groups_0 = const()[name = tensor<string, []>("functional_1_MobileNetV3Small_1_expanded_conv_10_depthwise_1_depthwisex_groups_0"), val = tensor<int32, []>(576)];
            tensor<int32, [4]> functional_1_MobileNetV3Small_1_expanded_conv_10_depthwise_1_depthwisex_pad_0 = const()[name = tensor<string, []>("functional_1_MobileNetV3Small_1_expanded_conv_10_depthwise_1_depthwisex_pad_0"), val = tensor<int32, [4]>([0, 0, 0, 0])];
            tensor<fp16, [576, 1, 5, 5]> functional_1_MobileNetV3Small_1_expanded_conv_10_depthwise_bn_1_batchnorm_mul_1_weight_0_to_fp16 = const()[name = tensor<string, []>("functional_1_MobileNetV3Small_1_expanded_conv_10_depthwise_bn_1_batchnorm_mul_1_weight_0_to_fp16"), val = tensor<fp16, [576, 1, 5, 5]>(BLOBFILE(path = tensor<string, []>("@model_path/weights/weight.bin"), offset = tensor<uint64, []>(1263424)))];
            tensor<fp16, [576]> const_122_to_fp16 = const()[name = tensor<string, []>("const_122_to_fp16"), val = tensor<fp16, [576]>(BLOBFILE(path = tensor<string, []>("@model_path/weights/weight.bin"), offset = tensor<uint64, []>(1292288)))];
            tensor<fp16, [1, 576, 7, 7]> functional_1_MobileNetV3Small_1_expanded_conv_10_depthwise_bn_1_batchnorm_add_1_cast_fp16 = conv(bias = const_122_to_fp16, dilations = functional_1_MobileNetV3Small_1_expanded_conv_10_depthwise_1_depthwisex_dilations_0, groups = functional_1_MobileNetV3Small_1_expanded_conv_10_depthwise_1_depthwisex_groups_0, pad = functional_1_MobileNetV3Small_1_expanded_conv_10_depthwise_1_depthwisex_pad_0, pad_type = functional_1_MobileNetV3Small_1_expanded_conv_10_depthwise_1_depthwisex_pad_type_0, strides = functional_1_MobileNetV3Small_1_expanded_conv_10_depthwise_1_depthwisex_strides_0, weight = functional_1_MobileNetV3Small_1_expanded_conv_10_depthwise_bn_1_batchnorm_mul_1_weight_0_to_fp16, x = functional_1_MobileNetV3Small_1_activation_15_1_mul_cast_fp16)[name = tensor<string, []>("functional_1_MobileNetV3Small_1_expanded_conv_10_depthwise_bn_1_batchnorm_add_1_cast_fp16")];
            tensor<fp16, []> functional_1_MobileNetV3Small_1_activation_16_1_Const_to_fp16 = const()[name = tensor<string, []>("functional_1_MobileNetV3Small_1_activation_16_1_Const_to_fp16"), val = tensor<fp16, []>(0x1.8p+1)];
            tensor<fp16, [1, 576, 7, 7]> functional_1_MobileNetV3Small_1_activation_16_1_add_cast_fp16 = add(x = functional_1_MobileNetV3Small_1_expanded_conv_10_depthwise_bn_1_batchnorm_add_1_cast_fp16, y = functional_1_MobileNetV3Small_1_activation_16_1_Const_to_fp16)[name = tensor<string, []>("functional_1_MobileNetV3Small_1_activation_16_1_add_cast_fp16")];
            tensor<fp16, [1, 576, 7, 7]> functional_1_MobileNetV3Small_1_activation_16_1_Relu6_cast_fp16 = relu6(x = functional_1_MobileNetV3Small_1_activation_16_1_add_cast_fp16)[name = tensor<string, []>("functional_1_MobileNetV3Small_1_activation_16_1_Relu6_cast_fp16")];
            tensor<fp16, []> ConstantFolding_functional_1_MobileNetV3Small_1_activation_16_1_truediv_recip_to_fp16 = const()[name = tensor<string, []>("ConstantFolding_functional_1_MobileNetV3Small_1_activation_16_1_truediv_recip_to_fp16"), val = tensor<fp16, []>(0x1.554p-3)];
            tensor<fp16, [1, 576, 7, 7]> functional_1_MobileNetV3Small_1_activation_16_1_truediv_cast_fp16 = mul(x = functional_1_MobileNetV3Small_1_activation_16_1_Relu6_cast_fp16, y = ConstantFolding_functional_1_MobileNetV3Small_1_activation_16_1_truediv_recip_to_fp16)[name = tensor<string, []>("functional_1_MobileNetV3Small_1_activation_16_1_truediv_cast_fp16")];
            tensor<fp16, [1, 576, 7, 7]> functional_1_MobileNetV3Small_1_activation_16_1_mul_cast_fp16 = mul(x = functional_1_MobileNetV3Small_1_expanded_conv_10_depthwise_bn_1_batchnorm_add_1_cast_fp16, y = functional_1_MobileNetV3Small_1_activation_16_1_truediv_cast_fp16)[name = tensor<string, []>("functional_1_MobileNetV3Small_1_activation_16_1_mul_cast_fp16")];
            tensor<bool, []> functional_1_MobileNetV3Small_1_expanded_conv_10_squeeze_excite_avg_pool_1_Mean_keep_dims_0 = const()[name = tensor<string, []>("functional_1_MobileNetV3Small_1_expanded_conv_10_squeeze_excite_avg_pool_1_Mean_keep_dims_0"), val = tensor<bool, []>(true)];
            tensor<int32, [2]> const_71 = const()[name = tensor<string, []>("const_71"), val = tensor<int32, [2]>([2, 3])];
            tensor<fp16, [1, 576, 1, 1]> functional_1_MobileNetV3Small_1_expanded_conv_10_squeeze_excite_avg_pool_1_Mean_cast_fp16 = reduce_mean(axes = const_71, keep_dims = functional_1_MobileNetV3Small_1_expanded_conv_10_squeeze_excite_avg_pool_1_Mean_keep_dims_0, x = functional_1_MobileNetV3Small_1_activation_16_1_mul_cast_fp16)[name = tensor<string, []>("functional_1_MobileNetV3Small_1_expanded_conv_10_squeeze_excite_avg_pool_1_Mean_cast_fp16")];
            tensor<string, []> functional_1_MobileNetV3Small_1_expanded_conv_10_squeeze_excite_conv_1_convolutionx_pad_type_0 = const()[name = tensor<string, []>("functional_1_MobileNetV3Small_1_expanded_conv_10_squeeze_excite_conv_1_convolutionx_pad_type_0"), val = tensor<string, []>("same")];
            tensor<int32, [2]> functional_1_MobileNetV3Small_1_expanded_conv_10_squeeze_excite_conv_1_convolutionx_strides_0 = const()[name = tensor<string, []>("functional_1_MobileNetV3Small_1_expanded_conv_10_squeeze_excite_conv_1_convolutionx_strides_0"), val = tensor<int32, [2]>([1, 1])];
            tensor<int32, [2]> functional_1_MobileNetV3Small_1_expanded_conv_10_squeeze_excite_conv_1_convolutionx_dilations_0 = const()[name = tensor<string, []>("functional_1_MobileNetV3Small_1_expanded_conv_10_squeeze_excite_conv_1_convolutionx_dilations_0"), val = tensor<int32, [2]>([1, 1])];
            tensor<int32, []> functional_1_MobileNetV3Small_1_expanded_conv_10_squeeze_excite_conv_1_convolutionx_groups_0 = const()[name = tensor<string, []>("functional_1_MobileNetV3Small_1_expanded_conv_10_squeeze_excite_conv_1_convolutionx_groups_0"), val = tensor<int32, []>(1)];
            tensor<int32, [4]> functional_1_MobileNetV3Small_1_expanded_conv_10_squeeze_excite_conv_1_convolutionx_pad_0 = const()[name = tensor<string, []>("functional_1_MobileNetV3Small_1_expanded_conv_10_squeeze_excite_conv_1_convolutionx_pad_0"), val = tensor<int32, [4]>([0, 0, 0, 0])];
            tensor<fp16, [144, 576, 1, 1]> transpose_96_to_fp16 = const()[name = tensor<string, []>("transpose_96_to_fp16"), val = tensor<fp16, [144, 576, 1, 1]>(BLOBFILE(path = tensor<string, []>("@model_path/weights/weight.bin"), offset = tensor<uint64, []>(1293504)))];
            tensor<fp16, [144]> const_123_to_fp16 = const()[name = tensor<string, []>("const_123_to_fp16"), val = tensor<fp16, [144]>(BLOBFILE(path = tensor<string, []>("@model_path/weights/weight.bin"), offset = tensor<uint64, []>(1459456)))];
            tensor<fp16, [1, 144, 1, 1]> functional_1_MobileNetV3Small_1_expanded_conv_10_squeeze_excite_conv_1_BiasAdd_cast_fp16 = conv(bias = const_123_to_fp16, dilations = functional_1_MobileNetV3Small_1_expanded_conv_10_squeeze_excite_conv_1_convolutionx_dilations_0, groups = functional_1_MobileNetV3Small_1_expanded_conv_10_squeeze_excite_conv_1_convolutionx_groups_0, pad = functional_1_MobileNetV3Small_1_expanded_conv_10_squeeze_excite_conv_1_convolutionx_pad_0, pad_type = functional_1_MobileNetV3Small_1_expanded_conv_10_squeeze_excite_conv_1_convolutionx_pad_type_0, strides = functional_1_MobileNetV3Small_1_expanded_conv_10_squeeze_excite_conv_1_convolutionx_strides_0, weight = transpose_96_to_fp16, x = functional_1_MobileNetV3Small_1_expanded_conv_10_squeeze_excite_avg_pool_1_Mean_cast_fp16)[name = tensor<string, []>("functional_1_MobileNetV3Small_1_expanded_conv_10_squeeze_excite_conv_1_BiasAdd_cast_fp16")];
            tensor<fp16, [1, 144, 1, 1]> functional_1_MobileNetV3Small_1_expanded_conv_10_squeeze_excite_relu_1_Relu_cast_fp16 = relu(x = functional_1_MobileNetV3Small_1_expanded_conv_10_squeeze_excite_conv_1_BiasAdd_cast_fp16)[name = tensor<string, []>("functional_1_MobileNetV3Small_1_expanded_conv_10_squeeze_excite_relu_1_Relu_cast_fp16")];
            tensor<string, []> functional_1_MobileNetV3Small_1_expanded_conv_10_squeeze_excite_conv_1_2_convolutionx_pad_type_0 = const()[name = tensor<string, []>("functional_1_MobileNetV3Small_1_expanded_conv_10_squeeze_excite_conv_1_2_convolutionx_pad_type_0"), val = tensor<string, []>("same")];
            tensor<int32, [2]> functional_1_MobileNetV3Small_1_expanded_conv_10_squeeze_excite_conv_1_2_convolutionx_strides_0 = const()[name = tensor<string, []>("functional_1_MobileNetV3Small_1_expanded_conv_10_squeeze_excite_conv_1_2_convolutionx_strides_0"), val = tensor<int32, [2]>([1, 1])];
            tensor<int32, [2]> functional_1_MobileNetV3Small_1_expanded_conv_10_squeeze_excite_conv_1_2_convolutionx_dilations_0 = const()[name = tensor<string, []>("functional_1_MobileNetV3Small_1_expanded_conv_10_squeeze_excite_conv_1_2_convolutionx_dilations_0"), val = tensor<int32, [2]>([1, 1])];
            tensor<int32, []> functional_1_MobileNetV3Small_1_expanded_conv_10_squeeze_excite_conv_1_2_convolutionx_groups_0 = const()[name = tensor<string, []>("functional_1_MobileNetV3Small_1_expanded_conv_10_squeeze_excite_conv_1_2_convolutionx_groups_0"), val = tensor<int32, []>(1)];
            tensor<int32, [4]> functional_1_MobileNetV3Small_1_expanded_conv_10_squeeze_excite_conv_1_2_convolutionx_pad_0 = const()[name = tensor<string, []>("functional_1_MobileNetV3Small_1_expanded_conv_10_squeeze_excite_conv_1_2_convolutionx_pad_0"), val = tensor<int32, [4]>([0, 0, 0, 0])];
            tensor<fp16, [576, 144, 1, 1]> transpose_98_to_fp16 = const()[name = tensor<string, []>("transpose_98_to_fp16"), val = tensor<fp16, [576, 144, 1, 1]>(BLOBFILE(path = tensor<string, []>("@model_path/weights/weight.bin"), offset = tensor<uint64, []>(1459840)))];
            tensor<fp16, [576]> const_134_to_fp16 = const()[name = tensor<string, []>("const_134_to_fp16"), val = tensor<fp16, [576]>(BLOBFILE(path = tensor<string, []>("@model_path/weights/weight.bin"), offset = tensor<uint64, []>(1625792)))];
            tensor<fp16, [1, 576, 1, 1]> functional_1_MobileNetV3Small_1_Add_8_cast_fp16 = conv(bias = const_134_to_fp16, dilations = functional_1_MobileNetV3Small_1_expanded_conv_10_squeeze_excite_conv_1_2_convolutionx_dilations_0, groups = functional_1_MobileNetV3Small_1_expanded_conv_10_squeeze_excite_conv_1_2_convolutionx_groups_0, pad = functional_1_MobileNetV3Small_1_expanded_conv_10_squeeze_excite_conv_1_2_convolutionx_pad_0, pad_type = functional_1_MobileNetV3Small_1_expanded_conv_10_squeeze_excite_conv_1_2_convolutionx_pad_type_0, strides = functional_1_MobileNetV3Small_1_expanded_conv_10_squeeze_excite_conv_1_2_convolutionx_strides_0, weight = transpose_98_to_fp16, x = functional_1_MobileNetV3Small_1_expanded_conv_10_squeeze_excite_relu_1_Relu_cast_fp16)[name = tensor<string, []>("functional_1_MobileNetV3Small_1_Add_8_cast_fp16")];
            tensor<fp16, [1, 576, 1, 1]> functional_1_MobileNetV3Small_1_re_lu_13_1_Relu6_cast_fp16 = relu6(x = functional_1_MobileNetV3Small_1_Add_8_cast_fp16)[name = tensor<string, []>("functional_1_MobileNetV3Small_1_re_lu_13_1_Relu6_cast_fp16")];
            tensor<fp16, []> functional_1_MobileNetV3Small_1_Const_17_to_fp16 = const()[name = tensor<string, []>("functional_1_MobileNetV3Small_1_Const_17_to_fp16"), val = tensor<fp16, []>(0x1.554p-3)];
            tensor<fp16, [1, 576, 1, 1]> functional_1_MobileNetV3Small_1_Mul_8_cast_fp16 = mul(x = functional_1_MobileNetV3Small_1_re_lu_13_1_Relu6_cast_fp16, y = functional_1_MobileNetV3Small_1_Const_17_to_fp16)[name = tensor<string, []>("functional_1_MobileNetV3Small_1_Mul_8_cast_fp16")];
            tensor<fp16, [1, 576, 7, 7]> functional_1_MobileNetV3Small_1_expanded_conv_10_squeeze_excite_mul_1_Mul_cast_fp16 = mul(x = functional_1_MobileNetV3Small_1_activation_16_1_mul_cast_fp16, y = functional_1_MobileNetV3Small_1_Mul_8_cast_fp16)[name = tensor<string, []>("functional_1_MobileNetV3Small_1_expanded_conv_10_squeeze_excite_mul_1_Mul_cast_fp16")];
            tensor<string, []> functional_1_MobileNetV3Small_1_expanded_conv_10_project_bn_1_batchnorm_mul_1x_pad_type_0 = const()[name = tensor<string, []>("functional_1_MobileNetV3Small_1_expanded_conv_10_project_bn_1_batchnorm_mul_1x_pad_type_0"), val = tensor<string, []>("same")];
            tensor<int32, [2]> functional_1_MobileNetV3Small_1_expanded_conv_10_project_bn_1_batchnorm_mul_1x_strides_0 = const()[name = tensor<string, []>("functional_1_MobileNetV3Small_1_expanded_conv_10_project_bn_1_batchnorm_mul_1x_strides_0"), val = tensor<int32, [2]>([1, 1])];
            tensor<int32, [2]> functional_1_MobileNetV3Small_1_expanded_conv_10_project_bn_1_batchnorm_mul_1x_dilations_0 = const()[name = tensor<string, []>("functional_1_MobileNetV3Small_1_expanded_conv_10_project_bn_1_batchnorm_mul_1x_dilations_0"), val = tensor<int32, [2]>([1, 1])];
            tensor<int32, []> functional_1_MobileNetV3Small_1_expanded_conv_10_project_bn_1_batchnorm_mul_1x_groups_0 = const()[name = tensor<string, []>("functional_1_MobileNetV3Small_1_expanded_conv_10_project_bn_1_batchnorm_mul_1x_groups_0"), val = tensor<int32, []>(1)];
            tensor<int32, [4]> functional_1_MobileNetV3Small_1_expanded_conv_10_project_bn_1_batchnorm_mul_1x_pad_0 = const()[name = tensor<string, []>("functional_1_MobileNetV3Small_1_expanded_conv_10_project_bn_1_batchnorm_mul_1x_pad_0"), val = tensor<int32, [4]>([0, 0, 0, 0])];
            tensor<fp16, [96, 576, 1, 1]> transpose_100_to_fp16 = const()[name = tensor<string, []>("transpose_100_to_fp16"), val = tensor<fp16, [96, 576, 1, 1]>(BLOBFILE(path = tensor<string, []>("@model_path/weights/weight.bin"), offset = tensor<uint64, []>(1627008)))];
            tensor<fp16, [96]> const_125_to_fp16 = const()[name = tensor<string, []>("const_125_to_fp16"), val = tensor<fp16, [96]>(BLOBFILE(path = tensor<string, []>("@model_path/weights/weight.bin"), offset = tensor<uint64, []>(1737664)))];
            tensor<fp16, [1, 96, 7, 7]> functional_1_MobileNetV3Small_1_expanded_conv_10_project_bn_1_batchnorm_add_1_cast_fp16 = conv(bias = const_125_to_fp16, dilations = functional_1_MobileNetV3Small_1_expanded_conv_10_project_bn_1_batchnorm_mul_1x_dilations_0, groups = functional_1_MobileNetV3Small_1_expanded_conv_10_project_bn_1_batchnorm_mul_1x_groups_0, pad = functional_1_MobileNetV3Small_1_expanded_conv_10_project_bn_1_batchnorm_mul_1x_pad_0, pad_type = functional_1_MobileNetV3Small_1_expanded_conv_10_project_bn_1_batchnorm_mul_1x_pad_type_0, strides = functional_1_MobileNetV3Small_1_expanded_conv_10_project_bn_1_batchnorm_mul_1x_strides_0, weight = transpose_100_to_fp16, x = functional_1_MobileNetV3Small_1_expanded_conv_10_squeeze_excite_mul_1_Mul_cast_fp16)[name = tensor<string, []>("functional_1_MobileNetV3Small_1_expanded_conv_10_project_bn_1_batchnorm_add_1_cast_fp16")];
            tensor<fp16, [1, 96, 7, 7]> functional_1_MobileNetV3Small_1_expanded_conv_10_add_1_Add_cast_fp16 = add(x = functional_1_MobileNetV3Small_1_expanded_conv_9_add_1_Add_cast_fp16, y = functional_1_MobileNetV3Small_1_expanded_conv_10_project_bn_1_batchnorm_add_1_cast_fp16)[name = tensor<string, []>("functional_1_MobileNetV3Small_1_expanded_conv_10_add_1_Add_cast_fp16")];
            tensor<string, []> functional_1_MobileNetV3Small_1_conv_1_bn_1_batchnorm_mul_1x_pad_type_0 = const()[name = tensor<string, []>("functional_1_MobileNetV3Small_1_conv_1_bn_1_batchnorm_mul_1x_pad_type_0"), val = tensor<string, []>("same")];
            tensor<int32, [2]> functional_1_MobileNetV3Small_1_conv_1_bn_1_batchnorm_mul_1x_strides_0 = const()[name = tensor<string, []>("functional_1_MobileNetV3Small_1_conv_1_bn_1_batchnorm_mul_1x_strides_0"), val = tensor<int32, [2]>([1, 1])];
            tensor<int32, [2]> functional_1_MobileNetV3Small_1_conv_1_bn_1_batchnorm_mul_1x_dilations_0 = const()[name = tensor<string, []>("functional_1_MobileNetV3Small_1_conv_1_bn_1_batchnorm_mul_1x_dilations_0"), val = tensor<int32, [2]>([1, 1])];
            tensor<int32, []> functional_1_MobileNetV3Small_1_conv_1_bn_1_batchnorm_mul_1x_groups_0 = const()[name = tensor<string, []>("functional_1_MobileNetV3Small_1_conv_1_bn_1_batchnorm_mul_1x_groups_0"), val = tensor<int32, []>(1)];
            tensor<int32, [4]> functional_1_MobileNetV3Small_1_conv_1_bn_1_batchnorm_mul_1x_pad_0 = const()[name = tensor<string, []>("functional_1_MobileNetV3Small_1_conv_1_bn_1_batchnorm_mul_1x_pad_0"), val = tensor<int32, [4]>([0, 0, 0, 0])];
            tensor<fp16, [576, 96, 1, 1]> conv_0_weight_0_to_fp16 = const()[name = tensor<string, []>("conv_0_weight_0_to_fp16"), val = tensor<fp16, [576, 96, 1, 1]>(BLOBFILE(path = tensor<string, []>("@model_path/weights/weight.bin"), offset = tensor<uint64, []>(1737920)))];
            tensor<fp16, [576]> conv_0_bias_0_to_fp16 = const()[name = tensor<string, []>("conv_0_bias_0_to_fp16"), val = tensor<fp16, [576]>(BLOBFILE(path = tensor<string, []>("@model_path/weights/weight.bin"), offset = tensor<uint64, []>(1848576)))];
            tensor<fp16, [1, 576, 7, 7]> conv_0_cast_fp16 = conv(bias = conv_0_bias_0_to_fp16, dilations = functional_1_MobileNetV3Small_1_conv_1_bn_1_batchnorm_mul_1x_dilations_0, groups = functional_1_MobileNetV3Small_1_conv_1_bn_1_batchnorm_mul_1x_groups_0, pad = functional_1_MobileNetV3Small_1_conv_1_bn_1_batchnorm_mul_1x_pad_0, pad_type = functional_1_MobileNetV3Small_1_conv_1_bn_1_batchnorm_mul_1x_pad_type_0, strides = functional_1_MobileNetV3Small_1_conv_1_bn_1_batchnorm_mul_1x_strides_0, weight = conv_0_weight_0_to_fp16, x = functional_1_MobileNetV3Small_1_expanded_conv_10_add_1_Add_cast_fp16)[name = tensor<string, []>("conv_0_cast_fp16")];
            tensor<int32, [4]> functional_1_MobileNetV3Small_1_conv_1_bn_1_batchnorm_mul_1_perm_0 = const()[name = tensor<string, []>("functional_1_MobileNetV3Small_1_conv_1_bn_1_batchnorm_mul_1_perm_0"), val = tensor<int32, [4]>([0, 2, 3, 1])];
            tensor<fp16, []> functional_1_MobileNetV3Small_1_activation_17_1_Const_to_fp16 = const()[name = tensor<string, []>("functional_1_MobileNetV3Small_1_activation_17_1_Const_to_fp16"), val = tensor<fp16, []>(0x1.8p+1)];
            tensor<fp16, [1, 7, 7, 576]> functional_1_MobileNetV3Small_1_conv_1_bn_1_batchnorm_add_1_cast_fp16 = transpose(perm = functional_1_MobileNetV3Small_1_conv_1_bn_1_batchnorm_mul_1_perm_0, x = conv_0_cast_fp16)[name = tensor<string, []>("transpose_109")];
            tensor<fp16, [1, 7, 7, 576]> functional_1_MobileNetV3Small_1_activation_17_1_add_cast_fp16 = add(x = functional_1_MobileNetV3Small_1_conv_1_bn_1_batchnorm_add_1_cast_fp16, y = functional_1_MobileNetV3Small_1_activation_17_1_Const_to_fp16)[name = tensor<string, []>("functional_1_MobileNetV3Small_1_activation_17_1_add_cast_fp16")];
            tensor<fp16, [1, 7, 7, 576]> functional_1_MobileNetV3Small_1_activation_17_1_Relu6_cast_fp16 = relu6(x = functional_1_MobileNetV3Small_1_activation_17_1_add_cast_fp16)[name = tensor<string, []>("functional_1_MobileNetV3Small_1_activation_17_1_Relu6_cast_fp16")];
            tensor<fp16, []> ConstantFolding_functional_1_MobileNetV3Small_1_activation_17_1_truediv_recip_to_fp16 = const()[name = tensor<string, []>("ConstantFolding_functional_1_MobileNetV3Small_1_activation_17_1_truediv_recip_to_fp16"), val = tensor<fp16, []>(0x1.554p-3)];
            tensor<fp16, [1, 7, 7, 576]> functional_1_MobileNetV3Small_1_activation_17_1_truediv_cast_fp16 = mul(x = functional_1_MobileNetV3Small_1_activation_17_1_Relu6_cast_fp16, y = ConstantFolding_functional_1_MobileNetV3Small_1_activation_17_1_truediv_recip_to_fp16)[name = tensor<string, []>("functional_1_MobileNetV3Small_1_activation_17_1_truediv_cast_fp16")];
            tensor<fp16, [1, 7, 7, 576]> functional_1_MobileNetV3Small_1_activation_17_1_mul_cast_fp16 = mul(x = functional_1_MobileNetV3Small_1_conv_1_bn_1_batchnorm_add_1_cast_fp16, y = functional_1_MobileNetV3Small_1_activation_17_1_truediv_cast_fp16)[name = tensor<string, []>("functional_1_MobileNetV3Small_1_activation_17_1_mul_cast_fp16")];
            tensor<int32, [2]> functional_1_MobileNetV3Small_1_avg_pool_1_Mean_axes_0 = const()[name = tensor<string, []>("functional_1_MobileNetV3Small_1_avg_pool_1_Mean_axes_0"), val = tensor<int32, [2]>([1, 2])];
            tensor<bool, []> functional_1_MobileNetV3Small_1_avg_pool_1_Mean_keep_dims_0 = const()[name = tensor<string, []>("functional_1_MobileNetV3Small_1_avg_pool_1_Mean_keep_dims_0"), val = tensor<bool, []>(false)];
            tensor<fp16, [1, 576]> functional_1_MobileNetV3Small_1_avg_pool_1_Mean_cast_fp16 = reduce_mean(axes = functional_1_MobileNetV3Small_1_avg_pool_1_Mean_axes_0, keep_dims = functional_1_MobileNetV3Small_1_avg_pool_1_Mean_keep_dims_0, x = functional_1_MobileNetV3Small_1_activation_17_1_mul_cast_fp16)[name = tensor<string, []>("functional_1_MobileNetV3Small_1_avg_pool_1_Mean_cast_fp16")];
            tensor<fp16, [3, 576]> transpose_104_cast_fp16_to_fp32_to_fp16 = const()[name = tensor<string, []>("transpose_104_cast_fp16_to_fp32_to_fp16"), val = tensor<fp16, [3, 576]>(BLOBFILE(path = tensor<string, []>("@model_path/weights/weight.bin"), offset = tensor<uint64, []>(1849792)))];
            tensor<fp16, [3]> functional_1_tier_1_BiasAdd_bias_0_to_fp16 = const()[name = tensor<string, []>("functional_1_tier_1_BiasAdd_bias_0_to_fp16"), val = tensor<fp16, [3]>([0x1.f3p-5, -0x1.34cp-4, 0x1.dbp-7])];
            tensor<fp16, [1, 3]> functional_1_tier_1_BiasAdd_cast_fp16 = linear(bias = functional_1_tier_1_BiasAdd_bias_0_to_fp16, weight = transpose_104_cast_fp16_to_fp32_to_fp16, x = functional_1_MobileNetV3Small_1_avg_pool_1_Mean_cast_fp16)[name = tensor<string, []>("functional_1_tier_1_BiasAdd_cast_fp16")];
            tensor<int32, []> functional_1_tier_1_Softmax_axis_0 = const()[name = tensor<string, []>("functional_1_tier_1_Softmax_axis_0"), val = tensor<int32, []>(-1)];
            tensor<fp16, [1, 3]> functional_1_tier_1_Softmax_cast_fp16 = softmax(axis = functional_1_tier_1_Softmax_axis_0, x = functional_1_tier_1_BiasAdd_cast_fp16)[name = tensor<string, []>("functional_1_tier_1_Softmax_cast_fp16")];
            tensor<string, []> functional_1_tier_1_Softmax_cast_fp16_to_fp32_dtype_0 = const()[name = tensor<string, []>("functional_1_tier_1_Softmax_cast_fp16_to_fp32_dtype_0"), val = tensor<string, []>("fp32")];
            tensor<fp32, [1, 3]> Identity = cast(dtype = functional_1_tier_1_Softmax_cast_fp16_to_fp32_dtype_0, x = functional_1_tier_1_Softmax_cast_fp16)[name = tensor<string, []>("cast_4")];
        } -> (Identity);
}